DenseNet(
  (features): Sequential(
    (conv0): Conv2d(3, 96, kernel_size=(7, 7), stride=(2, 2), padding=(3, 3), bias=False)
    (norm0): BatchNorm2d(96, eps=1e-05, momentum=0.1, affine=True, track_running_stats=True)
    (relu0): ReLU(inplace)
    (pool0): MaxPool2d(kernel_size=3, stride=2, padding=1, dilation=1, ceil_mode=False)
    (denseblock1): _DenseBlock(
      (denselayer1): _DenseLayer(
        (norm1): BatchNorm2d(96, eps=1e-05, momentum=0.1, affine=True, track_running_stats=True)
        (relu1): ReLU(inplace)
        (conv1): Conv2d(96, 192, kernel_size=(1, 1), stride=(1, 1), bias=False)
        (norm2): BatchNorm2d(192, eps=1e-05, momentum=0.1, affine=True, track_running_stats=True)
        (relu2): ReLU(inplace)
        (conv2): Conv2d(192, 48, kernel_size=(3, 3), stride=(1, 1), padding=(1, 1), bias=False)
      )
      (denselayer2): _DenseLayer(
        (norm1): BatchNorm2d(144, eps=1e-05, momentum=0.1, affine=True, track_running_stats=True)
        (relu1): ReLU(inplace)
        (conv1): Conv2d(144, 192, kernel_size=(1, 1), stride=(1, 1), bias=False)
        (norm2): BatchNorm2d(192, eps=1e-05, momentum=0.1, affine=True, track_running_stats=True)
        (relu2): ReLU(inplace)
        (conv2): Conv2d(192, 48, kernel_size=(3, 3), stride=(1, 1), padding=(1, 1), bias=False)
      )
      (denselayer3): _DenseLayer(
        (norm1): BatchNorm2d(192, eps=1e-05, momentum=0.1, affine=True, track_running_stats=True)
        (relu1): ReLU(inplace)
        (conv1): Conv2d(192, 192, kernel_size=(1, 1), stride=(1, 1), bias=False)
        (norm2): BatchNorm2d(192, eps=1e-05, momentum=0.1, affine=True, track_running_stats=True)
        (relu2): ReLU(inplace)
        (conv2): Conv2d(192, 48, kernel_size=(3, 3), stride=(1, 1), padding=(1, 1), bias=False)
      )
      (denselayer4): _DenseLayer(
        (norm1): BatchNorm2d(240, eps=1e-05, momentum=0.1, affine=True, track_running_stats=True)
        (relu1): ReLU(inplace)
        (conv1): Conv2d(240, 192, kernel_size=(1, 1), stride=(1, 1), bias=False)
        (norm2): BatchNorm2d(192, eps=1e-05, momentum=0.1, affine=True, track_running_stats=True)
        (relu2): ReLU(inplace)
        (conv2): Conv2d(192, 48, kernel_size=(3, 3), stride=(1, 1), padding=(1, 1), bias=False)
      )
      (denselayer5): _DenseLayer(
        (norm1): BatchNorm2d(288, eps=1e-05, momentum=0.1, affine=True, track_running_stats=True)
        (relu1): ReLU(inplace)
        (conv1): Conv2d(288, 192, kernel_size=(1, 1), stride=(1, 1), bias=False)
        (norm2): BatchNorm2d(192, eps=1e-05, momentum=0.1, affine=True, track_running_stats=True)
        (relu2): ReLU(inplace)
        (conv2): Conv2d(192, 48, kernel_size=(3, 3), stride=(1, 1), padding=(1, 1), bias=False)
      )
      (denselayer6): _DenseLayer(
        (norm1): BatchNorm2d(336, eps=1e-05, momentum=0.1, affine=True, track_running_stats=True)
        (relu1): ReLU(inplace)
        (conv1): Conv2d(336, 192, kernel_size=(1, 1), stride=(1, 1), bias=False)
        (norm2): BatchNorm2d(192, eps=1e-05, momentum=0.1, affine=True, track_running_stats=True)
        (relu2): ReLU(inplace)
        (conv2): Conv2d(192, 48, kernel_size=(3, 3), stride=(1, 1), padding=(1, 1), bias=False)
      )
    )
    (transition1): _Transition(
      (norm): BatchNorm2d(384, eps=1e-05, momentum=0.1, affine=True, track_running_stats=True)
      (relu): ReLU(inplace)
      (conv): Conv2d(384, 192, kernel_size=(1, 1), stride=(1, 1), bias=False)
      (pool): AvgPool2d(kernel_size=2, stride=2, padding=0)
    )
    (denseblock2): _DenseBlock(
      (denselayer1): _DenseLayer(
        (norm1): BatchNorm2d(192, eps=1e-05, momentum=0.1, affine=True, track_running_stats=True)
        (relu1): ReLU(inplace)
        (conv1): Conv2d(192, 192, kernel_size=(1, 1), stride=(1, 1), bias=False)
        (norm2): BatchNorm2d(192, eps=1e-05, momentum=0.1, affine=True, track_running_stats=True)
        (relu2): ReLU(inplace)
        (conv2): Conv2d(192, 48, kernel_size=(3, 3), stride=(1, 1), padding=(1, 1), bias=False)
      )
      (denselayer2): _DenseLayer(
        (norm1): BatchNorm2d(240, eps=1e-05, momentum=0.1, affine=True, track_running_stats=True)
        (relu1): ReLU(inplace)
        (conv1): Conv2d(240, 192, kernel_size=(1, 1), stride=(1, 1), bias=False)
        (norm2): BatchNorm2d(192, eps=1e-05, momentum=0.1, affine=True, track_running_stats=True)
        (relu2): ReLU(inplace)
        (conv2): Conv2d(192, 48, kernel_size=(3, 3), stride=(1, 1), padding=(1, 1), bias=False)
      )
      (denselayer3): _DenseLayer(
        (norm1): BatchNorm2d(288, eps=1e-05, momentum=0.1, affine=True, track_running_stats=True)
        (relu1): ReLU(inplace)
        (conv1): Conv2d(288, 192, kernel_size=(1, 1), stride=(1, 1), bias=False)
        (norm2): BatchNorm2d(192, eps=1e-05, momentum=0.1, affine=True, track_running_stats=True)
        (relu2): ReLU(inplace)
        (conv2): Conv2d(192, 48, kernel_size=(3, 3), stride=(1, 1), padding=(1, 1), bias=False)
      )
      (denselayer4): _DenseLayer(
        (norm1): BatchNorm2d(336, eps=1e-05, momentum=0.1, affine=True, track_running_stats=True)
        (relu1): ReLU(inplace)
        (conv1): Conv2d(336, 192, kernel_size=(1, 1), stride=(1, 1), bias=False)
        (norm2): BatchNorm2d(192, eps=1e-05, momentum=0.1, affine=True, track_running_stats=True)
        (relu2): ReLU(inplace)
        (conv2): Conv2d(192, 48, kernel_size=(3, 3), stride=(1, 1), padding=(1, 1), bias=False)
      )
      (denselayer5): _DenseLayer(
        (norm1): BatchNorm2d(384, eps=1e-05, momentum=0.1, affine=True, track_running_stats=True)
        (relu1): ReLU(inplace)
        (conv1): Conv2d(384, 192, kernel_size=(1, 1), stride=(1, 1), bias=False)
        (norm2): BatchNorm2d(192, eps=1e-05, momentum=0.1, affine=True, track_running_stats=True)
        (relu2): ReLU(inplace)
        (conv2): Conv2d(192, 48, kernel_size=(3, 3), stride=(1, 1), padding=(1, 1), bias=False)
      )
      (denselayer6): _DenseLayer(
        (norm1): BatchNorm2d(432, eps=1e-05, momentum=0.1, affine=True, track_running_stats=True)
        (relu1): ReLU(inplace)
        (conv1): Conv2d(432, 192, kernel_size=(1, 1), stride=(1, 1), bias=False)
        (norm2): BatchNorm2d(192, eps=1e-05, momentum=0.1, affine=True, track_running_stats=True)
        (relu2): ReLU(inplace)
        (conv2): Conv2d(192, 48, kernel_size=(3, 3), stride=(1, 1), padding=(1, 1), bias=False)
      )
      (denselayer7): _DenseLayer(
        (norm1): BatchNorm2d(480, eps=1e-05, momentum=0.1, affine=True, track_running_stats=True)
        (relu1): ReLU(inplace)
        (conv1): Conv2d(480, 192, kernel_size=(1, 1), stride=(1, 1), bias=False)
        (norm2): BatchNorm2d(192, eps=1e-05, momentum=0.1, affine=True, track_running_stats=True)
        (relu2): ReLU(inplace)
        (conv2): Conv2d(192, 48, kernel_size=(3, 3), stride=(1, 1), padding=(1, 1), bias=False)
      )
      (denselayer8): _DenseLayer(
        (norm1): BatchNorm2d(528, eps=1e-05, momentum=0.1, affine=True, track_running_stats=True)
        (relu1): ReLU(inplace)
        (conv1): Conv2d(528, 192, kernel_size=(1, 1), stride=(1, 1), bias=False)
        (norm2): BatchNorm2d(192, eps=1e-05, momentum=0.1, affine=True, track_running_stats=True)
        (relu2): ReLU(inplace)
        (conv2): Conv2d(192, 48, kernel_size=(3, 3), stride=(1, 1), padding=(1, 1), bias=False)
      )
      (denselayer9): _DenseLayer(
        (norm1): BatchNorm2d(576, eps=1e-05, momentum=0.1, affine=True, track_running_stats=True)
        (relu1): ReLU(inplace)
        (conv1): Conv2d(576, 192, kernel_size=(1, 1), stride=(1, 1), bias=False)
        (norm2): BatchNorm2d(192, eps=1e-05, momentum=0.1, affine=True, track_running_stats=True)
        (relu2): ReLU(inplace)
        (conv2): Conv2d(192, 48, kernel_size=(3, 3), stride=(1, 1), padding=(1, 1), bias=False)
      )
      (denselayer10): _DenseLayer(
        (norm1): BatchNorm2d(624, eps=1e-05, momentum=0.1, affine=True, track_running_stats=True)
        (relu1): ReLU(inplace)
        (conv1): Conv2d(624, 192, kernel_size=(1, 1), stride=(1, 1), bias=False)
        (norm2): BatchNorm2d(192, eps=1e-05, momentum=0.1, affine=True, track_running_stats=True)
        (relu2): ReLU(inplace)
        (conv2): Conv2d(192, 48, kernel_size=(3, 3), stride=(1, 1), padding=(1, 1), bias=False)
      )
      (denselayer11): _DenseLayer(
        (norm1): BatchNorm2d(672, eps=1e-05, momentum=0.1, affine=True, track_running_stats=True)
        (relu1): ReLU(inplace)
        (conv1): Conv2d(672, 192, kernel_size=(1, 1), stride=(1, 1), bias=False)
        (norm2): BatchNorm2d(192, eps=1e-05, momentum=0.1, affine=True, track_running_stats=True)
        (relu2): ReLU(inplace)
        (conv2): Conv2d(192, 48, kernel_size=(3, 3), stride=(1, 1), padding=(1, 1), bias=False)
      )
      (denselayer12): _DenseLayer(
        (norm1): BatchNorm2d(720, eps=1e-05, momentum=0.1, affine=True, track_running_stats=True)
        (relu1): ReLU(inplace)
        (conv1): Conv2d(720, 192, kernel_size=(1, 1), stride=(1, 1), bias=False)
        (norm2): BatchNorm2d(192, eps=1e-05, momentum=0.1, affine=True, track_running_stats=True)
        (relu2): ReLU(inplace)
        (conv2): Conv2d(192, 48, kernel_size=(3, 3), stride=(1, 1), padding=(1, 1), bias=False)
      )
    )
    (transition2): _Transition(
      (norm): BatchNorm2d(768, eps=1e-05, momentum=0.1, affine=True, track_running_stats=True)
      (relu): ReLU(inplace)
      (conv): Conv2d(768, 384, kernel_size=(1, 1), stride=(1, 1), bias=False)
      (pool): AvgPool2d(kernel_size=2, stride=2, padding=0)
    )
    (denseblock3): _DenseBlock(
      (denselayer1): _DenseLayer(
        (norm1): BatchNorm2d(384, eps=1e-05, momentum=0.1, affine=True, track_running_stats=True)
        (relu1): ReLU(inplace)
        (conv1): Conv2d(384, 192, kernel_size=(1, 1), stride=(1, 1), bias=False)
        (norm2): BatchNorm2d(192, eps=1e-05, momentum=0.1, affine=True, track_running_stats=True)
        (relu2): ReLU(inplace)
        (conv2): Conv2d(192, 48, kernel_size=(3, 3), stride=(1, 1), padding=(1, 1), bias=False)
      )
      (denselayer2): _DenseLayer(
        (norm1): BatchNorm2d(432, eps=1e-05, momentum=0.1, affine=True, track_running_stats=True)
        (relu1): ReLU(inplace)
        (conv1): Conv2d(432, 192, kernel_size=(1, 1), stride=(1, 1), bias=False)
        (norm2): BatchNorm2d(192, eps=1e-05, momentum=0.1, affine=True, track_running_stats=True)
        (relu2): ReLU(inplace)
        (conv2): Conv2d(192, 48, kernel_size=(3, 3), stride=(1, 1), padding=(1, 1), bias=False)
      )
      (denselayer3): _DenseLayer(
        (norm1): BatchNorm2d(480, eps=1e-05, momentum=0.1, affine=True, track_running_stats=True)
        (relu1): ReLU(inplace)
        (conv1): Conv2d(480, 192, kernel_size=(1, 1), stride=(1, 1), bias=False)
        (norm2): BatchNorm2d(192, eps=1e-05, momentum=0.1, affine=True, track_running_stats=True)
        (relu2): ReLU(inplace)
        (conv2): Conv2d(192, 48, kernel_size=(3, 3), stride=(1, 1), padding=(1, 1), bias=False)
      )
      (denselayer4): _DenseLayer(
        (norm1): BatchNorm2d(528, eps=1e-05, momentum=0.1, affine=True, track_running_stats=True)
        (relu1): ReLU(inplace)
        (conv1): Conv2d(528, 192, kernel_size=(1, 1), stride=(1, 1), bias=False)
        (norm2): BatchNorm2d(192, eps=1e-05, momentum=0.1, affine=True, track_running_stats=True)
        (relu2): ReLU(inplace)
        (conv2): Conv2d(192, 48, kernel_size=(3, 3), stride=(1, 1), padding=(1, 1), bias=False)
      )
      (denselayer5): _DenseLayer(
        (norm1): BatchNorm2d(576, eps=1e-05, momentum=0.1, affine=True, track_running_stats=True)
        (relu1): ReLU(inplace)
        (conv1): Conv2d(576, 192, kernel_size=(1, 1), stride=(1, 1), bias=False)
        (norm2): BatchNorm2d(192, eps=1e-05, momentum=0.1, affine=True, track_running_stats=True)
        (relu2): ReLU(inplace)
        (conv2): Conv2d(192, 48, kernel_size=(3, 3), stride=(1, 1), padding=(1, 1), bias=False)
      )
      (denselayer6): _DenseLayer(
        (norm1): BatchNorm2d(624, eps=1e-05, momentum=0.1, affine=True, track_running_stats=True)
        (relu1): ReLU(inplace)
        (conv1): Conv2d(624, 192, kernel_size=(1, 1), stride=(1, 1), bias=False)
        (norm2): BatchNorm2d(192, eps=1e-05, momentum=0.1, affine=True, track_running_stats=True)
        (relu2): ReLU(inplace)
        (conv2): Conv2d(192, 48, kernel_size=(3, 3), stride=(1, 1), padding=(1, 1), bias=False)
      )
      (denselayer7): _DenseLayer(
        (norm1): BatchNorm2d(672, eps=1e-05, momentum=0.1, affine=True, track_running_stats=True)
        (relu1): ReLU(inplace)
        (conv1): Conv2d(672, 192, kernel_size=(1, 1), stride=(1, 1), bias=False)
        (norm2): BatchNorm2d(192, eps=1e-05, momentum=0.1, affine=True, track_running_stats=True)
        (relu2): ReLU(inplace)
        (conv2): Conv2d(192, 48, kernel_size=(3, 3), stride=(1, 1), padding=(1, 1), bias=False)
      )
      (denselayer8): _DenseLayer(
        (norm1): BatchNorm2d(720, eps=1e-05, momentum=0.1, affine=True, track_running_stats=True)
        (relu1): ReLU(inplace)
        (conv1): Conv2d(720, 192, kernel_size=(1, 1), stride=(1, 1), bias=False)
        (norm2): BatchNorm2d(192, eps=1e-05, momentum=0.1, affine=True, track_running_stats=True)
        (relu2): ReLU(inplace)
        (conv2): Conv2d(192, 48, kernel_size=(3, 3), stride=(1, 1), padding=(1, 1), bias=False)
      )
      (denselayer9): _DenseLayer(
        (norm1): BatchNorm2d(768, eps=1e-05, momentum=0.1, affine=True, track_running_stats=True)
        (relu1): ReLU(inplace)
        (conv1): Conv2d(768, 192, kernel_size=(1, 1), stride=(1, 1), bias=False)
        (norm2): BatchNorm2d(192, eps=1e-05, momentum=0.1, affine=True, track_running_stats=True)
        (relu2): ReLU(inplace)
        (conv2): Conv2d(192, 48, kernel_size=(3, 3), stride=(1, 1), padding=(1, 1), bias=False)
      )
      (denselayer10): _DenseLayer(
        (norm1): BatchNorm2d(816, eps=1e-05, momentum=0.1, affine=True, track_running_stats=True)
        (relu1): ReLU(inplace)
        (conv1): Conv2d(816, 192, kernel_size=(1, 1), stride=(1, 1), bias=False)
        (norm2): BatchNorm2d(192, eps=1e-05, momentum=0.1, affine=True, track_running_stats=True)
        (relu2): ReLU(inplace)
        (conv2): Conv2d(192, 48, kernel_size=(3, 3), stride=(1, 1), padding=(1, 1), bias=False)
      )
      (denselayer11): _DenseLayer(
        (norm1): BatchNorm2d(864, eps=1e-05, momentum=0.1, affine=True, track_running_stats=True)
        (relu1): ReLU(inplace)
        (conv1): Conv2d(864, 192, kernel_size=(1, 1), stride=(1, 1), bias=False)
        (norm2): BatchNorm2d(192, eps=1e-05, momentum=0.1, affine=True, track_running_stats=True)
        (relu2): ReLU(inplace)
        (conv2): Conv2d(192, 48, kernel_size=(3, 3), stride=(1, 1), padding=(1, 1), bias=False)
      )
      (denselayer12): _DenseLayer(
        (norm1): BatchNorm2d(912, eps=1e-05, momentum=0.1, affine=True, track_running_stats=True)
        (relu1): ReLU(inplace)
        (conv1): Conv2d(912, 192, kernel_size=(1, 1), stride=(1, 1), bias=False)
        (norm2): BatchNorm2d(192, eps=1e-05, momentum=0.1, affine=True, track_running_stats=True)
        (relu2): ReLU(inplace)
        (conv2): Conv2d(192, 48, kernel_size=(3, 3), stride=(1, 1), padding=(1, 1), bias=False)
      )
      (denselayer13): _DenseLayer(
        (norm1): BatchNorm2d(960, eps=1e-05, momentum=0.1, affine=True, track_running_stats=True)
        (relu1): ReLU(inplace)
        (conv1): Conv2d(960, 192, kernel_size=(1, 1), stride=(1, 1), bias=False)
        (norm2): BatchNorm2d(192, eps=1e-05, momentum=0.1, affine=True, track_running_stats=True)
        (relu2): ReLU(inplace)
        (conv2): Conv2d(192, 48, kernel_size=(3, 3), stride=(1, 1), padding=(1, 1), bias=False)
      )
      (denselayer14): _DenseLayer(
        (norm1): BatchNorm2d(1008, eps=1e-05, momentum=0.1, affine=True, track_running_stats=True)
        (relu1): ReLU(inplace)
        (conv1): Conv2d(1008, 192, kernel_size=(1, 1), stride=(1, 1), bias=False)
        (norm2): BatchNorm2d(192, eps=1e-05, momentum=0.1, affine=True, track_running_stats=True)
        (relu2): ReLU(inplace)
        (conv2): Conv2d(192, 48, kernel_size=(3, 3), stride=(1, 1), padding=(1, 1), bias=False)
      )
      (denselayer15): _DenseLayer(
        (norm1): BatchNorm2d(1056, eps=1e-05, momentum=0.1, affine=True, track_running_stats=True)
        (relu1): ReLU(inplace)
        (conv1): Conv2d(1056, 192, kernel_size=(1, 1), stride=(1, 1), bias=False)
        (norm2): BatchNorm2d(192, eps=1e-05, momentum=0.1, affine=True, track_running_stats=True)
        (relu2): ReLU(inplace)
        (conv2): Conv2d(192, 48, kernel_size=(3, 3), stride=(1, 1), padding=(1, 1), bias=False)
      )
      (denselayer16): _DenseLayer(
        (norm1): BatchNorm2d(1104, eps=1e-05, momentum=0.1, affine=True, track_running_stats=True)
        (relu1): ReLU(inplace)
        (conv1): Conv2d(1104, 192, kernel_size=(1, 1), stride=(1, 1), bias=False)
        (norm2): BatchNorm2d(192, eps=1e-05, momentum=0.1, affine=True, track_running_stats=True)
        (relu2): ReLU(inplace)
        (conv2): Conv2d(192, 48, kernel_size=(3, 3), stride=(1, 1), padding=(1, 1), bias=False)
      )
      (denselayer17): _DenseLayer(
        (norm1): BatchNorm2d(1152, eps=1e-05, momentum=0.1, affine=True, track_running_stats=True)
        (relu1): ReLU(inplace)
        (conv1): Conv2d(1152, 192, kernel_size=(1, 1), stride=(1, 1), bias=False)
        (norm2): BatchNorm2d(192, eps=1e-05, momentum=0.1, affine=True, track_running_stats=True)
        (relu2): ReLU(inplace)
        (conv2): Conv2d(192, 48, kernel_size=(3, 3), stride=(1, 1), padding=(1, 1), bias=False)
      )
      (denselayer18): _DenseLayer(
        (norm1): BatchNorm2d(1200, eps=1e-05, momentum=0.1, affine=True, track_running_stats=True)
        (relu1): ReLU(inplace)
        (conv1): Conv2d(1200, 192, kernel_size=(1, 1), stride=(1, 1), bias=False)
        (norm2): BatchNorm2d(192, eps=1e-05, momentum=0.1, affine=True, track_running_stats=True)
        (relu2): ReLU(inplace)
        (conv2): Conv2d(192, 48, kernel_size=(3, 3), stride=(1, 1), padding=(1, 1), bias=False)
      )
      (denselayer19): _DenseLayer(
        (norm1): BatchNorm2d(1248, eps=1e-05, momentum=0.1, affine=True, track_running_stats=True)
        (relu1): ReLU(inplace)
        (conv1): Conv2d(1248, 192, kernel_size=(1, 1), stride=(1, 1), bias=False)
        (norm2): BatchNorm2d(192, eps=1e-05, momentum=0.1, affine=True, track_running_stats=True)
        (relu2): ReLU(inplace)
        (conv2): Conv2d(192, 48, kernel_size=(3, 3), stride=(1, 1), padding=(1, 1), bias=False)
      )
      (denselayer20): _DenseLayer(
        (norm1): BatchNorm2d(1296, eps=1e-05, momentum=0.1, affine=True, track_running_stats=True)
        (relu1): ReLU(inplace)
        (conv1): Conv2d(1296, 192, kernel_size=(1, 1), stride=(1, 1), bias=False)
        (norm2): BatchNorm2d(192, eps=1e-05, momentum=0.1, affine=True, track_running_stats=True)
        (relu2): ReLU(inplace)
        (conv2): Conv2d(192, 48, kernel_size=(3, 3), stride=(1, 1), padding=(1, 1), bias=False)
      )
      (denselayer21): _DenseLayer(
        (norm1): BatchNorm2d(1344, eps=1e-05, momentum=0.1, affine=True, track_running_stats=True)
        (relu1): ReLU(inplace)
        (conv1): Conv2d(1344, 192, kernel_size=(1, 1), stride=(1, 1), bias=False)
        (norm2): BatchNorm2d(192, eps=1e-05, momentum=0.1, affine=True, track_running_stats=True)
        (relu2): ReLU(inplace)
        (conv2): Conv2d(192, 48, kernel_size=(3, 3), stride=(1, 1), padding=(1, 1), bias=False)
      )
      (denselayer22): _DenseLayer(
        (norm1): BatchNorm2d(1392, eps=1e-05, momentum=0.1, affine=True, track_running_stats=True)
        (relu1): ReLU(inplace)
        (conv1): Conv2d(1392, 192, kernel_size=(1, 1), stride=(1, 1), bias=False)
        (norm2): BatchNorm2d(192, eps=1e-05, momentum=0.1, affine=True, track_running_stats=True)
        (relu2): ReLU(inplace)
        (conv2): Conv2d(192, 48, kernel_size=(3, 3), stride=(1, 1), padding=(1, 1), bias=False)
      )
      (denselayer23): _DenseLayer(
        (norm1): BatchNorm2d(1440, eps=1e-05, momentum=0.1, affine=True, track_running_stats=True)
        (relu1): ReLU(inplace)
        (conv1): Conv2d(1440, 192, kernel_size=(1, 1), stride=(1, 1), bias=False)
        (norm2): BatchNorm2d(192, eps=1e-05, momentum=0.1, affine=True, track_running_stats=True)
        (relu2): ReLU(inplace)
        (conv2): Conv2d(192, 48, kernel_size=(3, 3), stride=(1, 1), padding=(1, 1), bias=False)
      )
      (denselayer24): _DenseLayer(
        (norm1): BatchNorm2d(1488, eps=1e-05, momentum=0.1, affine=True, track_running_stats=True)
        (relu1): ReLU(inplace)
        (conv1): Conv2d(1488, 192, kernel_size=(1, 1), stride=(1, 1), bias=False)
        (norm2): BatchNorm2d(192, eps=1e-05, momentum=0.1, affine=True, track_running_stats=True)
        (relu2): ReLU(inplace)
        (conv2): Conv2d(192, 48, kernel_size=(3, 3), stride=(1, 1), padding=(1, 1), bias=False)
      )
      (denselayer25): _DenseLayer(
        (norm1): BatchNorm2d(1536, eps=1e-05, momentum=0.1, affine=True, track_running_stats=True)
        (relu1): ReLU(inplace)
        (conv1): Conv2d(1536, 192, kernel_size=(1, 1), stride=(1, 1), bias=False)
        (norm2): BatchNorm2d(192, eps=1e-05, momentum=0.1, affine=True, track_running_stats=True)
        (relu2): ReLU(inplace)
        (conv2): Conv2d(192, 48, kernel_size=(3, 3), stride=(1, 1), padding=(1, 1), bias=False)
      )
      (denselayer26): _DenseLayer(
        (norm1): BatchNorm2d(1584, eps=1e-05, momentum=0.1, affine=True, track_running_stats=True)
        (relu1): ReLU(inplace)
        (conv1): Conv2d(1584, 192, kernel_size=(1, 1), stride=(1, 1), bias=False)
        (norm2): BatchNorm2d(192, eps=1e-05, momentum=0.1, affine=True, track_running_stats=True)
        (relu2): ReLU(inplace)
        (conv2): Conv2d(192, 48, kernel_size=(3, 3), stride=(1, 1), padding=(1, 1), bias=False)
      )
      (denselayer27): _DenseLayer(
        (norm1): BatchNorm2d(1632, eps=1e-05, momentum=0.1, affine=True, track_running_stats=True)
        (relu1): ReLU(inplace)
        (conv1): Conv2d(1632, 192, kernel_size=(1, 1), stride=(1, 1), bias=False)
        (norm2): BatchNorm2d(192, eps=1e-05, momentum=0.1, affine=True, track_running_stats=True)
        (relu2): ReLU(inplace)
        (conv2): Conv2d(192, 48, kernel_size=(3, 3), stride=(1, 1), padding=(1, 1), bias=False)
      )
      (denselayer28): _DenseLayer(
        (norm1): BatchNorm2d(1680, eps=1e-05, momentum=0.1, affine=True, track_running_stats=True)
        (relu1): ReLU(inplace)
        (conv1): Conv2d(1680, 192, kernel_size=(1, 1), stride=(1, 1), bias=False)
        (norm2): BatchNorm2d(192, eps=1e-05, momentum=0.1, affine=True, track_running_stats=True)
        (relu2): ReLU(inplace)
        (conv2): Conv2d(192, 48, kernel_size=(3, 3), stride=(1, 1), padding=(1, 1), bias=False)
      )
      (denselayer29): _DenseLayer(
        (norm1): BatchNorm2d(1728, eps=1e-05, momentum=0.1, affine=True, track_running_stats=True)
        (relu1): ReLU(inplace)
        (conv1): Conv2d(1728, 192, kernel_size=(1, 1), stride=(1, 1), bias=False)
        (norm2): BatchNorm2d(192, eps=1e-05, momentum=0.1, affine=True, track_running_stats=True)
        (relu2): ReLU(inplace)
        (conv2): Conv2d(192, 48, kernel_size=(3, 3), stride=(1, 1), padding=(1, 1), bias=False)
      )
      (denselayer30): _DenseLayer(
        (norm1): BatchNorm2d(1776, eps=1e-05, momentum=0.1, affine=True, track_running_stats=True)
        (relu1): ReLU(inplace)
        (conv1): Conv2d(1776, 192, kernel_size=(1, 1), stride=(1, 1), bias=False)
        (norm2): BatchNorm2d(192, eps=1e-05, momentum=0.1, affine=True, track_running_stats=True)
        (relu2): ReLU(inplace)
        (conv2): Conv2d(192, 48, kernel_size=(3, 3), stride=(1, 1), padding=(1, 1), bias=False)
      )
      (denselayer31): _DenseLayer(
        (norm1): BatchNorm2d(1824, eps=1e-05, momentum=0.1, affine=True, track_running_stats=True)
        (relu1): ReLU(inplace)
        (conv1): Conv2d(1824, 192, kernel_size=(1, 1), stride=(1, 1), bias=False)
        (norm2): BatchNorm2d(192, eps=1e-05, momentum=0.1, affine=True, track_running_stats=True)
        (relu2): ReLU(inplace)
        (conv2): Conv2d(192, 48, kernel_size=(3, 3), stride=(1, 1), padding=(1, 1), bias=False)
      )
      (denselayer32): _DenseLayer(
        (norm1): BatchNorm2d(1872, eps=1e-05, momentum=0.1, affine=True, track_running_stats=True)
        (relu1): ReLU(inplace)
        (conv1): Conv2d(1872, 192, kernel_size=(1, 1), stride=(1, 1), bias=False)
        (norm2): BatchNorm2d(192, eps=1e-05, momentum=0.1, affine=True, track_running_stats=True)
        (relu2): ReLU(inplace)
        (conv2): Conv2d(192, 48, kernel_size=(3, 3), stride=(1, 1), padding=(1, 1), bias=False)
      )
      (denselayer33): _DenseLayer(
        (norm1): BatchNorm2d(1920, eps=1e-05, momentum=0.1, affine=True, track_running_stats=True)
        (relu1): ReLU(inplace)
        (conv1): Conv2d(1920, 192, kernel_size=(1, 1), stride=(1, 1), bias=False)
        (norm2): BatchNorm2d(192, eps=1e-05, momentum=0.1, affine=True, track_running_stats=True)
        (relu2): ReLU(inplace)
        (conv2): Conv2d(192, 48, kernel_size=(3, 3), stride=(1, 1), padding=(1, 1), bias=False)
      )
      (denselayer34): _DenseLayer(
        (norm1): BatchNorm2d(1968, eps=1e-05, momentum=0.1, affine=True, track_running_stats=True)
        (relu1): ReLU(inplace)
        (conv1): Conv2d(1968, 192, kernel_size=(1, 1), stride=(1, 1), bias=False)
        (norm2): BatchNorm2d(192, eps=1e-05, momentum=0.1, affine=True, track_running_stats=True)
        (relu2): ReLU(inplace)
        (conv2): Conv2d(192, 48, kernel_size=(3, 3), stride=(1, 1), padding=(1, 1), bias=False)
      )
      (denselayer35): _DenseLayer(
        (norm1): BatchNorm2d(2016, eps=1e-05, momentum=0.1, affine=True, track_running_stats=True)
        (relu1): ReLU(inplace)
        (conv1): Conv2d(2016, 192, kernel_size=(1, 1), stride=(1, 1), bias=False)
        (norm2): BatchNorm2d(192, eps=1e-05, momentum=0.1, affine=True, track_running_stats=True)
        (relu2): ReLU(inplace)
        (conv2): Conv2d(192, 48, kernel_size=(3, 3), stride=(1, 1), padding=(1, 1), bias=False)
      )
      (denselayer36): _DenseLayer(
        (norm1): BatchNorm2d(2064, eps=1e-05, momentum=0.1, affine=True, track_running_stats=True)
        (relu1): ReLU(inplace)
        (conv1): Conv2d(2064, 192, kernel_size=(1, 1), stride=(1, 1), bias=False)
        (norm2): BatchNorm2d(192, eps=1e-05, momentum=0.1, affine=True, track_running_stats=True)
        (relu2): ReLU(inplace)
        (conv2): Conv2d(192, 48, kernel_size=(3, 3), stride=(1, 1), padding=(1, 1), bias=False)
      )
    )
    (transition3): _Transition(
      (norm): BatchNorm2d(2112, eps=1e-05, momentum=0.1, affine=True, track_running_stats=True)
      (relu): ReLU(inplace)
      (conv): Conv2d(2112, 1056, kernel_size=(1, 1), stride=(1, 1), bias=False)
      (pool): AvgPool2d(kernel_size=2, stride=2, padding=0)
    )
    (denseblock4): _DenseBlock(
      (denselayer1): _DenseLayer(
        (norm1): BatchNorm2d(1056, eps=1e-05, momentum=0.1, affine=True, track_running_stats=True)
        (relu1): ReLU(inplace)
        (conv1): Conv2d(1056, 192, kernel_size=(1, 1), stride=(1, 1), bias=False)
        (norm2): BatchNorm2d(192, eps=1e-05, momentum=0.1, affine=True, track_running_stats=True)
        (relu2): ReLU(inplace)
        (conv2): Conv2d(192, 48, kernel_size=(3, 3), stride=(1, 1), padding=(1, 1), bias=False)
      )
      (denselayer2): _DenseLayer(
        (norm1): BatchNorm2d(1104, eps=1e-05, momentum=0.1, affine=True, track_running_stats=True)
        (relu1): ReLU(inplace)
        (conv1): Conv2d(1104, 192, kernel_size=(1, 1), stride=(1, 1), bias=False)
        (norm2): BatchNorm2d(192, eps=1e-05, momentum=0.1, affine=True, track_running_stats=True)
        (relu2): ReLU(inplace)
        (conv2): Conv2d(192, 48, kernel_size=(3, 3), stride=(1, 1), padding=(1, 1), bias=False)
      )
      (denselayer3): _DenseLayer(
        (norm1): BatchNorm2d(1152, eps=1e-05, momentum=0.1, affine=True, track_running_stats=True)
        (relu1): ReLU(inplace)
        (conv1): Conv2d(1152, 192, kernel_size=(1, 1), stride=(1, 1), bias=False)
        (norm2): BatchNorm2d(192, eps=1e-05, momentum=0.1, affine=True, track_running_stats=True)
        (relu2): ReLU(inplace)
        (conv2): Conv2d(192, 48, kernel_size=(3, 3), stride=(1, 1), padding=(1, 1), bias=False)
      )
      (denselayer4): _DenseLayer(
        (norm1): BatchNorm2d(1200, eps=1e-05, momentum=0.1, affine=True, track_running_stats=True)
        (relu1): ReLU(inplace)
        (conv1): Conv2d(1200, 192, kernel_size=(1, 1), stride=(1, 1), bias=False)
        (norm2): BatchNorm2d(192, eps=1e-05, momentum=0.1, affine=True, track_running_stats=True)
        (relu2): ReLU(inplace)
        (conv2): Conv2d(192, 48, kernel_size=(3, 3), stride=(1, 1), padding=(1, 1), bias=False)
      )
      (denselayer5): _DenseLayer(
        (norm1): BatchNorm2d(1248, eps=1e-05, momentum=0.1, affine=True, track_running_stats=True)
        (relu1): ReLU(inplace)
        (conv1): Conv2d(1248, 192, kernel_size=(1, 1), stride=(1, 1), bias=False)
        (norm2): BatchNorm2d(192, eps=1e-05, momentum=0.1, affine=True, track_running_stats=True)
        (relu2): ReLU(inplace)
        (conv2): Conv2d(192, 48, kernel_size=(3, 3), stride=(1, 1), padding=(1, 1), bias=False)
      )
      (denselayer6): _DenseLayer(
        (norm1): BatchNorm2d(1296, eps=1e-05, momentum=0.1, affine=True, track_running_stats=True)
        (relu1): ReLU(inplace)
        (conv1): Conv2d(1296, 192, kernel_size=(1, 1), stride=(1, 1), bias=False)
        (norm2): BatchNorm2d(192, eps=1e-05, momentum=0.1, affine=True, track_running_stats=True)
        (relu2): ReLU(inplace)
        (conv2): Conv2d(192, 48, kernel_size=(3, 3), stride=(1, 1), padding=(1, 1), bias=False)
      )
      (denselayer7): _DenseLayer(
        (norm1): BatchNorm2d(1344, eps=1e-05, momentum=0.1, affine=True, track_running_stats=True)
        (relu1): ReLU(inplace)
        (conv1): Conv2d(1344, 192, kernel_size=(1, 1), stride=(1, 1), bias=False)
        (norm2): BatchNorm2d(192, eps=1e-05, momentum=0.1, affine=True, track_running_stats=True)
        (relu2): ReLU(inplace)
        (conv2): Conv2d(192, 48, kernel_size=(3, 3), stride=(1, 1), padding=(1, 1), bias=False)
      )
      (denselayer8): _DenseLayer(
        (norm1): BatchNorm2d(1392, eps=1e-05, momentum=0.1, affine=True, track_running_stats=True)
        (relu1): ReLU(inplace)
        (conv1): Conv2d(1392, 192, kernel_size=(1, 1), stride=(1, 1), bias=False)
        (norm2): BatchNorm2d(192, eps=1e-05, momentum=0.1, affine=True, track_running_stats=True)
        (relu2): ReLU(inplace)
        (conv2): Conv2d(192, 48, kernel_size=(3, 3), stride=(1, 1), padding=(1, 1), bias=False)
      )
      (denselayer9): _DenseLayer(
        (norm1): BatchNorm2d(1440, eps=1e-05, momentum=0.1, affine=True, track_running_stats=True)
        (relu1): ReLU(inplace)
        (conv1): Conv2d(1440, 192, kernel_size=(1, 1), stride=(1, 1), bias=False)
        (norm2): BatchNorm2d(192, eps=1e-05, momentum=0.1, affine=True, track_running_stats=True)
        (relu2): ReLU(inplace)
        (conv2): Conv2d(192, 48, kernel_size=(3, 3), stride=(1, 1), padding=(1, 1), bias=False)
      )
      (denselayer10): _DenseLayer(
        (norm1): BatchNorm2d(1488, eps=1e-05, momentum=0.1, affine=True, track_running_stats=True)
        (relu1): ReLU(inplace)
        (conv1): Conv2d(1488, 192, kernel_size=(1, 1), stride=(1, 1), bias=False)
        (norm2): BatchNorm2d(192, eps=1e-05, momentum=0.1, affine=True, track_running_stats=True)
        (relu2): ReLU(inplace)
        (conv2): Conv2d(192, 48, kernel_size=(3, 3), stride=(1, 1), padding=(1, 1), bias=False)
      )
      (denselayer11): _DenseLayer(
        (norm1): BatchNorm2d(1536, eps=1e-05, momentum=0.1, affine=True, track_running_stats=True)
        (relu1): ReLU(inplace)
        (conv1): Conv2d(1536, 192, kernel_size=(1, 1), stride=(1, 1), bias=False)
        (norm2): BatchNorm2d(192, eps=1e-05, momentum=0.1, affine=True, track_running_stats=True)
        (relu2): ReLU(inplace)
        (conv2): Conv2d(192, 48, kernel_size=(3, 3), stride=(1, 1), padding=(1, 1), bias=False)
      )
      (denselayer12): _DenseLayer(
        (norm1): BatchNorm2d(1584, eps=1e-05, momentum=0.1, affine=True, track_running_stats=True)
        (relu1): ReLU(inplace)
        (conv1): Conv2d(1584, 192, kernel_size=(1, 1), stride=(1, 1), bias=False)
        (norm2): BatchNorm2d(192, eps=1e-05, momentum=0.1, affine=True, track_running_stats=True)
        (relu2): ReLU(inplace)
        (conv2): Conv2d(192, 48, kernel_size=(3, 3), stride=(1, 1), padding=(1, 1), bias=False)
      )
      (denselayer13): _DenseLayer(
        (norm1): BatchNorm2d(1632, eps=1e-05, momentum=0.1, affine=True, track_running_stats=True)
        (relu1): ReLU(inplace)
        (conv1): Conv2d(1632, 192, kernel_size=(1, 1), stride=(1, 1), bias=False)
        (norm2): BatchNorm2d(192, eps=1e-05, momentum=0.1, affine=True, track_running_stats=True)
        (relu2): ReLU(inplace)
        (conv2): Conv2d(192, 48, kernel_size=(3, 3), stride=(1, 1), padding=(1, 1), bias=False)
      )
      (denselayer14): _DenseLayer(
        (norm1): BatchNorm2d(1680, eps=1e-05, momentum=0.1, affine=True, track_running_stats=True)
        (relu1): ReLU(inplace)
        (conv1): Conv2d(1680, 192, kernel_size=(1, 1), stride=(1, 1), bias=False)
        (norm2): BatchNorm2d(192, eps=1e-05, momentum=0.1, affine=True, track_running_stats=True)
        (relu2): ReLU(inplace)
        (conv2): Conv2d(192, 48, kernel_size=(3, 3), stride=(1, 1), padding=(1, 1), bias=False)
      )
      (denselayer15): _DenseLayer(
        (norm1): BatchNorm2d(1728, eps=1e-05, momentum=0.1, affine=True, track_running_stats=True)
        (relu1): ReLU(inplace)
        (conv1): Conv2d(1728, 192, kernel_size=(1, 1), stride=(1, 1), bias=False)
        (norm2): BatchNorm2d(192, eps=1e-05, momentum=0.1, affine=True, track_running_stats=True)
        (relu2): ReLU(inplace)
        (conv2): Conv2d(192, 48, kernel_size=(3, 3), stride=(1, 1), padding=(1, 1), bias=False)
      )
      (denselayer16): _DenseLayer(
        (norm1): BatchNorm2d(1776, eps=1e-05, momentum=0.1, affine=True, track_running_stats=True)
        (relu1): ReLU(inplace)
        (conv1): Conv2d(1776, 192, kernel_size=(1, 1), stride=(1, 1), bias=False)
        (norm2): BatchNorm2d(192, eps=1e-05, momentum=0.1, affine=True, track_running_stats=True)
        (relu2): ReLU(inplace)
        (conv2): Conv2d(192, 48, kernel_size=(3, 3), stride=(1, 1), padding=(1, 1), bias=False)
      )
      (denselayer17): _DenseLayer(
        (norm1): BatchNorm2d(1824, eps=1e-05, momentum=0.1, affine=True, track_running_stats=True)
        (relu1): ReLU(inplace)
        (conv1): Conv2d(1824, 192, kernel_size=(1, 1), stride=(1, 1), bias=False)
        (norm2): BatchNorm2d(192, eps=1e-05, momentum=0.1, affine=True, track_running_stats=True)
        (relu2): ReLU(inplace)
        (conv2): Conv2d(192, 48, kernel_size=(3, 3), stride=(1, 1), padding=(1, 1), bias=False)
      )
      (denselayer18): _DenseLayer(
        (norm1): BatchNorm2d(1872, eps=1e-05, momentum=0.1, affine=True, track_running_stats=True)
        (relu1): ReLU(inplace)
        (conv1): Conv2d(1872, 192, kernel_size=(1, 1), stride=(1, 1), bias=False)
        (norm2): BatchNorm2d(192, eps=1e-05, momentum=0.1, affine=True, track_running_stats=True)
        (relu2): ReLU(inplace)
        (conv2): Conv2d(192, 48, kernel_size=(3, 3), stride=(1, 1), padding=(1, 1), bias=False)
      )
      (denselayer19): _DenseLayer(
        (norm1): BatchNorm2d(1920, eps=1e-05, momentum=0.1, affine=True, track_running_stats=True)
        (relu1): ReLU(inplace)
        (conv1): Conv2d(1920, 192, kernel_size=(1, 1), stride=(1, 1), bias=False)
        (norm2): BatchNorm2d(192, eps=1e-05, momentum=0.1, affine=True, track_running_stats=True)
        (relu2): ReLU(inplace)
        (conv2): Conv2d(192, 48, kernel_size=(3, 3), stride=(1, 1), padding=(1, 1), bias=False)
      )
      (denselayer20): _DenseLayer(
        (norm1): BatchNorm2d(1968, eps=1e-05, momentum=0.1, affine=True, track_running_stats=True)
        (relu1): ReLU(inplace)
        (conv1): Conv2d(1968, 192, kernel_size=(1, 1), stride=(1, 1), bias=False)
        (norm2): BatchNorm2d(192, eps=1e-05, momentum=0.1, affine=True, track_running_stats=True)
        (relu2): ReLU(inplace)
        (conv2): Conv2d(192, 48, kernel_size=(3, 3), stride=(1, 1), padding=(1, 1), bias=False)
      )
      (denselayer21): _DenseLayer(
        (norm1): BatchNorm2d(2016, eps=1e-05, momentum=0.1, affine=True, track_running_stats=True)
        (relu1): ReLU(inplace)
        (conv1): Conv2d(2016, 192, kernel_size=(1, 1), stride=(1, 1), bias=False)
        (norm2): BatchNorm2d(192, eps=1e-05, momentum=0.1, affine=True, track_running_stats=True)
        (relu2): ReLU(inplace)
        (conv2): Conv2d(192, 48, kernel_size=(3, 3), stride=(1, 1), padding=(1, 1), bias=False)
      )
      (denselayer22): _DenseLayer(
        (norm1): BatchNorm2d(2064, eps=1e-05, momentum=0.1, affine=True, track_running_stats=True)
        (relu1): ReLU(inplace)
        (conv1): Conv2d(2064, 192, kernel_size=(1, 1), stride=(1, 1), bias=False)
        (norm2): BatchNorm2d(192, eps=1e-05, momentum=0.1, affine=True, track_running_stats=True)
        (relu2): ReLU(inplace)
        (conv2): Conv2d(192, 48, kernel_size=(3, 3), stride=(1, 1), padding=(1, 1), bias=False)
      )
      (denselayer23): _DenseLayer(
        (norm1): BatchNorm2d(2112, eps=1e-05, momentum=0.1, affine=True, track_running_stats=True)
        (relu1): ReLU(inplace)
        (conv1): Conv2d(2112, 192, kernel_size=(1, 1), stride=(1, 1), bias=False)
        (norm2): BatchNorm2d(192, eps=1e-05, momentum=0.1, affine=True, track_running_stats=True)
        (relu2): ReLU(inplace)
        (conv2): Conv2d(192, 48, kernel_size=(3, 3), stride=(1, 1), padding=(1, 1), bias=False)
      )
      (denselayer24): _DenseLayer(
        (norm1): BatchNorm2d(2160, eps=1e-05, momentum=0.1, affine=True, track_running_stats=True)
        (relu1): ReLU(inplace)
        (conv1): Conv2d(2160, 192, kernel_size=(1, 1), stride=(1, 1), bias=False)
        (norm2): BatchNorm2d(192, eps=1e-05, momentum=0.1, affine=True, track_running_stats=True)
        (relu2): ReLU(inplace)
        (conv2): Conv2d(192, 48, kernel_size=(3, 3), stride=(1, 1), padding=(1, 1), bias=False)
      )
    )
    (norm5): BatchNorm2d(2208, eps=1e-05, momentum=0.1, affine=True, track_running_stats=True)
  )
  (classifier): Linear(in_features=2208, out_features=1000, bias=True)
)
Sequential(
  (conv0): Conv2d(3, 96, kernel_size=(7, 7), stride=(2, 2), padding=(3, 3), bias=False)
  (norm0): BatchNorm2d(96, eps=1e-05, momentum=0.1, affine=True, track_running_stats=True)
  (relu0): ReLU(inplace)
  (pool0): MaxPool2d(kernel_size=3, stride=2, padding=1, dilation=1, ceil_mode=False)
  (denseblock1): _DenseBlock(
    (denselayer1): _DenseLayer(
      (norm1): BatchNorm2d(96, eps=1e-05, momentum=0.1, affine=True, track_running_stats=True)
      (relu1): ReLU(inplace)
      (conv1): Conv2d(96, 192, kernel_size=(1, 1), stride=(1, 1), bias=False)
      (norm2): BatchNorm2d(192, eps=1e-05, momentum=0.1, affine=True, track_running_stats=True)
      (relu2): ReLU(inplace)
      (conv2): Conv2d(192, 48, kernel_size=(3, 3), stride=(1, 1), padding=(1, 1), bias=False)
    )
    (denselayer2): _DenseLayer(
      (norm1): BatchNorm2d(144, eps=1e-05, momentum=0.1, affine=True, track_running_stats=True)
      (relu1): ReLU(inplace)
      (conv1): Conv2d(144, 192, kernel_size=(1, 1), stride=(1, 1), bias=False)
      (norm2): BatchNorm2d(192, eps=1e-05, momentum=0.1, affine=True, track_running_stats=True)
      (relu2): ReLU(inplace)
      (conv2): Conv2d(192, 48, kernel_size=(3, 3), stride=(1, 1), padding=(1, 1), bias=False)
    )
    (denselayer3): _DenseLayer(
      (norm1): BatchNorm2d(192, eps=1e-05, momentum=0.1, affine=True, track_running_stats=True)
      (relu1): ReLU(inplace)
      (conv1): Conv2d(192, 192, kernel_size=(1, 1), stride=(1, 1), bias=False)
      (norm2): BatchNorm2d(192, eps=1e-05, momentum=0.1, affine=True, track_running_stats=True)
      (relu2): ReLU(inplace)
      (conv2): Conv2d(192, 48, kernel_size=(3, 3), stride=(1, 1), padding=(1, 1), bias=False)
    )
    (denselayer4): _DenseLayer(
      (norm1): BatchNorm2d(240, eps=1e-05, momentum=0.1, affine=True, track_running_stats=True)
      (relu1): ReLU(inplace)
      (conv1): Conv2d(240, 192, kernel_size=(1, 1), stride=(1, 1), bias=False)
      (norm2): BatchNorm2d(192, eps=1e-05, momentum=0.1, affine=True, track_running_stats=True)
      (relu2): ReLU(inplace)
      (conv2): Conv2d(192, 48, kernel_size=(3, 3), stride=(1, 1), padding=(1, 1), bias=False)
    )
    (denselayer5): _DenseLayer(
      (norm1): BatchNorm2d(288, eps=1e-05, momentum=0.1, affine=True, track_running_stats=True)
      (relu1): ReLU(inplace)
      (conv1): Conv2d(288, 192, kernel_size=(1, 1), stride=(1, 1), bias=False)
      (norm2): BatchNorm2d(192, eps=1e-05, momentum=0.1, affine=True, track_running_stats=True)
      (relu2): ReLU(inplace)
      (conv2): Conv2d(192, 48, kernel_size=(3, 3), stride=(1, 1), padding=(1, 1), bias=False)
    )
    (denselayer6): _DenseLayer(
      (norm1): BatchNorm2d(336, eps=1e-05, momentum=0.1, affine=True, track_running_stats=True)
      (relu1): ReLU(inplace)
      (conv1): Conv2d(336, 192, kernel_size=(1, 1), stride=(1, 1), bias=False)
      (norm2): BatchNorm2d(192, eps=1e-05, momentum=0.1, affine=True, track_running_stats=True)
      (relu2): ReLU(inplace)
      (conv2): Conv2d(192, 48, kernel_size=(3, 3), stride=(1, 1), padding=(1, 1), bias=False)
    )
  )
  (transition1): _Transition(
    (norm): BatchNorm2d(384, eps=1e-05, momentum=0.1, affine=True, track_running_stats=True)
    (relu): ReLU(inplace)
    (conv): Conv2d(384, 192, kernel_size=(1, 1), stride=(1, 1), bias=False)
    (pool): AvgPool2d(kernel_size=2, stride=2, padding=0)
  )
  (denseblock2): _DenseBlock(
    (denselayer1): _DenseLayer(
      (norm1): BatchNorm2d(192, eps=1e-05, momentum=0.1, affine=True, track_running_stats=True)
      (relu1): ReLU(inplace)
      (conv1): Conv2d(192, 192, kernel_size=(1, 1), stride=(1, 1), bias=False)
      (norm2): BatchNorm2d(192, eps=1e-05, momentum=0.1, affine=True, track_running_stats=True)
      (relu2): ReLU(inplace)
      (conv2): Conv2d(192, 48, kernel_size=(3, 3), stride=(1, 1), padding=(1, 1), bias=False)
    )
    (denselayer2): _DenseLayer(
      (norm1): BatchNorm2d(240, eps=1e-05, momentum=0.1, affine=True, track_running_stats=True)
      (relu1): ReLU(inplace)
      (conv1): Conv2d(240, 192, kernel_size=(1, 1), stride=(1, 1), bias=False)
      (norm2): BatchNorm2d(192, eps=1e-05, momentum=0.1, affine=True, track_running_stats=True)
      (relu2): ReLU(inplace)
      (conv2): Conv2d(192, 48, kernel_size=(3, 3), stride=(1, 1), padding=(1, 1), bias=False)
    )
    (denselayer3): _DenseLayer(
      (norm1): BatchNorm2d(288, eps=1e-05, momentum=0.1, affine=True, track_running_stats=True)
      (relu1): ReLU(inplace)
      (conv1): Conv2d(288, 192, kernel_size=(1, 1), stride=(1, 1), bias=False)
      (norm2): BatchNorm2d(192, eps=1e-05, momentum=0.1, affine=True, track_running_stats=True)
      (relu2): ReLU(inplace)
      (conv2): Conv2d(192, 48, kernel_size=(3, 3), stride=(1, 1), padding=(1, 1), bias=False)
    )
    (denselayer4): _DenseLayer(
      (norm1): BatchNorm2d(336, eps=1e-05, momentum=0.1, affine=True, track_running_stats=True)
      (relu1): ReLU(inplace)
      (conv1): Conv2d(336, 192, kernel_size=(1, 1), stride=(1, 1), bias=False)
      (norm2): BatchNorm2d(192, eps=1e-05, momentum=0.1, affine=True, track_running_stats=True)
      (relu2): ReLU(inplace)
      (conv2): Conv2d(192, 48, kernel_size=(3, 3), stride=(1, 1), padding=(1, 1), bias=False)
    )
    (denselayer5): _DenseLayer(
      (norm1): BatchNorm2d(384, eps=1e-05, momentum=0.1, affine=True, track_running_stats=True)
      (relu1): ReLU(inplace)
      (conv1): Conv2d(384, 192, kernel_size=(1, 1), stride=(1, 1), bias=False)
      (norm2): BatchNorm2d(192, eps=1e-05, momentum=0.1, affine=True, track_running_stats=True)
      (relu2): ReLU(inplace)
      (conv2): Conv2d(192, 48, kernel_size=(3, 3), stride=(1, 1), padding=(1, 1), bias=False)
    )
    (denselayer6): _DenseLayer(
      (norm1): BatchNorm2d(432, eps=1e-05, momentum=0.1, affine=True, track_running_stats=True)
      (relu1): ReLU(inplace)
      (conv1): Conv2d(432, 192, kernel_size=(1, 1), stride=(1, 1), bias=False)
      (norm2): BatchNorm2d(192, eps=1e-05, momentum=0.1, affine=True, track_running_stats=True)
      (relu2): ReLU(inplace)
      (conv2): Conv2d(192, 48, kernel_size=(3, 3), stride=(1, 1), padding=(1, 1), bias=False)
    )
    (denselayer7): _DenseLayer(
      (norm1): BatchNorm2d(480, eps=1e-05, momentum=0.1, affine=True, track_running_stats=True)
      (relu1): ReLU(inplace)
      (conv1): Conv2d(480, 192, kernel_size=(1, 1), stride=(1, 1), bias=False)
      (norm2): BatchNorm2d(192, eps=1e-05, momentum=0.1, affine=True, track_running_stats=True)
      (relu2): ReLU(inplace)
      (conv2): Conv2d(192, 48, kernel_size=(3, 3), stride=(1, 1), padding=(1, 1), bias=False)
    )
    (denselayer8): _DenseLayer(
      (norm1): BatchNorm2d(528, eps=1e-05, momentum=0.1, affine=True, track_running_stats=True)
      (relu1): ReLU(inplace)
      (conv1): Conv2d(528, 192, kernel_size=(1, 1), stride=(1, 1), bias=False)
      (norm2): BatchNorm2d(192, eps=1e-05, momentum=0.1, affine=True, track_running_stats=True)
      (relu2): ReLU(inplace)
      (conv2): Conv2d(192, 48, kernel_size=(3, 3), stride=(1, 1), padding=(1, 1), bias=False)
    )
    (denselayer9): _DenseLayer(
      (norm1): BatchNorm2d(576, eps=1e-05, momentum=0.1, affine=True, track_running_stats=True)
      (relu1): ReLU(inplace)
      (conv1): Conv2d(576, 192, kernel_size=(1, 1), stride=(1, 1), bias=False)
      (norm2): BatchNorm2d(192, eps=1e-05, momentum=0.1, affine=True, track_running_stats=True)
      (relu2): ReLU(inplace)
      (conv2): Conv2d(192, 48, kernel_size=(3, 3), stride=(1, 1), padding=(1, 1), bias=False)
    )
    (denselayer10): _DenseLayer(
      (norm1): BatchNorm2d(624, eps=1e-05, momentum=0.1, affine=True, track_running_stats=True)
      (relu1): ReLU(inplace)
      (conv1): Conv2d(624, 192, kernel_size=(1, 1), stride=(1, 1), bias=False)
      (norm2): BatchNorm2d(192, eps=1e-05, momentum=0.1, affine=True, track_running_stats=True)
      (relu2): ReLU(inplace)
      (conv2): Conv2d(192, 48, kernel_size=(3, 3), stride=(1, 1), padding=(1, 1), bias=False)
    )
    (denselayer11): _DenseLayer(
      (norm1): BatchNorm2d(672, eps=1e-05, momentum=0.1, affine=True, track_running_stats=True)
      (relu1): ReLU(inplace)
      (conv1): Conv2d(672, 192, kernel_size=(1, 1), stride=(1, 1), bias=False)
      (norm2): BatchNorm2d(192, eps=1e-05, momentum=0.1, affine=True, track_running_stats=True)
      (relu2): ReLU(inplace)
      (conv2): Conv2d(192, 48, kernel_size=(3, 3), stride=(1, 1), padding=(1, 1), bias=False)
    )
    (denselayer12): _DenseLayer(
      (norm1): BatchNorm2d(720, eps=1e-05, momentum=0.1, affine=True, track_running_stats=True)
      (relu1): ReLU(inplace)
      (conv1): Conv2d(720, 192, kernel_size=(1, 1), stride=(1, 1), bias=False)
      (norm2): BatchNorm2d(192, eps=1e-05, momentum=0.1, affine=True, track_running_stats=True)
      (relu2): ReLU(inplace)
      (conv2): Conv2d(192, 48, kernel_size=(3, 3), stride=(1, 1), padding=(1, 1), bias=False)
    )
  )
  (transition2): _Transition(
    (norm): BatchNorm2d(768, eps=1e-05, momentum=0.1, affine=True, track_running_stats=True)
    (relu): ReLU(inplace)
    (conv): Conv2d(768, 384, kernel_size=(1, 1), stride=(1, 1), bias=False)
    (pool): AvgPool2d(kernel_size=2, stride=2, padding=0)
  )
  (denseblock3): _DenseBlock(
    (denselayer1): _DenseLayer(
      (norm1): BatchNorm2d(384, eps=1e-05, momentum=0.1, affine=True, track_running_stats=True)
      (relu1): ReLU(inplace)
      (conv1): Conv2d(384, 192, kernel_size=(1, 1), stride=(1, 1), bias=False)
      (norm2): BatchNorm2d(192, eps=1e-05, momentum=0.1, affine=True, track_running_stats=True)
      (relu2): ReLU(inplace)
      (conv2): Conv2d(192, 48, kernel_size=(3, 3), stride=(1, 1), padding=(1, 1), bias=False)
    )
    (denselayer2): _DenseLayer(
      (norm1): BatchNorm2d(432, eps=1e-05, momentum=0.1, affine=True, track_running_stats=True)
      (relu1): ReLU(inplace)
      (conv1): Conv2d(432, 192, kernel_size=(1, 1), stride=(1, 1), bias=False)
      (norm2): BatchNorm2d(192, eps=1e-05, momentum=0.1, affine=True, track_running_stats=True)
      (relu2): ReLU(inplace)
      (conv2): Conv2d(192, 48, kernel_size=(3, 3), stride=(1, 1), padding=(1, 1), bias=False)
    )
    (denselayer3): _DenseLayer(
      (norm1): BatchNorm2d(480, eps=1e-05, momentum=0.1, affine=True, track_running_stats=True)
      (relu1): ReLU(inplace)
      (conv1): Conv2d(480, 192, kernel_size=(1, 1), stride=(1, 1), bias=False)
      (norm2): BatchNorm2d(192, eps=1e-05, momentum=0.1, affine=True, track_running_stats=True)
      (relu2): ReLU(inplace)
      (conv2): Conv2d(192, 48, kernel_size=(3, 3), stride=(1, 1), padding=(1, 1), bias=False)
    )
    (denselayer4): _DenseLayer(
      (norm1): BatchNorm2d(528, eps=1e-05, momentum=0.1, affine=True, track_running_stats=True)
      (relu1): ReLU(inplace)
      (conv1): Conv2d(528, 192, kernel_size=(1, 1), stride=(1, 1), bias=False)
      (norm2): BatchNorm2d(192, eps=1e-05, momentum=0.1, affine=True, track_running_stats=True)
      (relu2): ReLU(inplace)
      (conv2): Conv2d(192, 48, kernel_size=(3, 3), stride=(1, 1), padding=(1, 1), bias=False)
    )
    (denselayer5): _DenseLayer(
      (norm1): BatchNorm2d(576, eps=1e-05, momentum=0.1, affine=True, track_running_stats=True)
      (relu1): ReLU(inplace)
      (conv1): Conv2d(576, 192, kernel_size=(1, 1), stride=(1, 1), bias=False)
      (norm2): BatchNorm2d(192, eps=1e-05, momentum=0.1, affine=True, track_running_stats=True)
      (relu2): ReLU(inplace)
      (conv2): Conv2d(192, 48, kernel_size=(3, 3), stride=(1, 1), padding=(1, 1), bias=False)
    )
    (denselayer6): _DenseLayer(
      (norm1): BatchNorm2d(624, eps=1e-05, momentum=0.1, affine=True, track_running_stats=True)
      (relu1): ReLU(inplace)
      (conv1): Conv2d(624, 192, kernel_size=(1, 1), stride=(1, 1), bias=False)
      (norm2): BatchNorm2d(192, eps=1e-05, momentum=0.1, affine=True, track_running_stats=True)
      (relu2): ReLU(inplace)
      (conv2): Conv2d(192, 48, kernel_size=(3, 3), stride=(1, 1), padding=(1, 1), bias=False)
    )
    (denselayer7): _DenseLayer(
      (norm1): BatchNorm2d(672, eps=1e-05, momentum=0.1, affine=True, track_running_stats=True)
      (relu1): ReLU(inplace)
      (conv1): Conv2d(672, 192, kernel_size=(1, 1), stride=(1, 1), bias=False)
      (norm2): BatchNorm2d(192, eps=1e-05, momentum=0.1, affine=True, track_running_stats=True)
      (relu2): ReLU(inplace)
      (conv2): Conv2d(192, 48, kernel_size=(3, 3), stride=(1, 1), padding=(1, 1), bias=False)
    )
    (denselayer8): _DenseLayer(
      (norm1): BatchNorm2d(720, eps=1e-05, momentum=0.1, affine=True, track_running_stats=True)
      (relu1): ReLU(inplace)
      (conv1): Conv2d(720, 192, kernel_size=(1, 1), stride=(1, 1), bias=False)
      (norm2): BatchNorm2d(192, eps=1e-05, momentum=0.1, affine=True, track_running_stats=True)
      (relu2): ReLU(inplace)
      (conv2): Conv2d(192, 48, kernel_size=(3, 3), stride=(1, 1), padding=(1, 1), bias=False)
    )
    (denselayer9): _DenseLayer(
      (norm1): BatchNorm2d(768, eps=1e-05, momentum=0.1, affine=True, track_running_stats=True)
      (relu1): ReLU(inplace)
      (conv1): Conv2d(768, 192, kernel_size=(1, 1), stride=(1, 1), bias=False)
      (norm2): BatchNorm2d(192, eps=1e-05, momentum=0.1, affine=True, track_running_stats=True)
      (relu2): ReLU(inplace)
      (conv2): Conv2d(192, 48, kernel_size=(3, 3), stride=(1, 1), padding=(1, 1), bias=False)
    )
    (denselayer10): _DenseLayer(
      (norm1): BatchNorm2d(816, eps=1e-05, momentum=0.1, affine=True, track_running_stats=True)
      (relu1): ReLU(inplace)
      (conv1): Conv2d(816, 192, kernel_size=(1, 1), stride=(1, 1), bias=False)
      (norm2): BatchNorm2d(192, eps=1e-05, momentum=0.1, affine=True, track_running_stats=True)
      (relu2): ReLU(inplace)
      (conv2): Conv2d(192, 48, kernel_size=(3, 3), stride=(1, 1), padding=(1, 1), bias=False)
    )
    (denselayer11): _DenseLayer(
      (norm1): BatchNorm2d(864, eps=1e-05, momentum=0.1, affine=True, track_running_stats=True)
      (relu1): ReLU(inplace)
      (conv1): Conv2d(864, 192, kernel_size=(1, 1), stride=(1, 1), bias=False)
      (norm2): BatchNorm2d(192, eps=1e-05, momentum=0.1, affine=True, track_running_stats=True)
      (relu2): ReLU(inplace)
      (conv2): Conv2d(192, 48, kernel_size=(3, 3), stride=(1, 1), padding=(1, 1), bias=False)
    )
    (denselayer12): _DenseLayer(
      (norm1): BatchNorm2d(912, eps=1e-05, momentum=0.1, affine=True, track_running_stats=True)
      (relu1): ReLU(inplace)
      (conv1): Conv2d(912, 192, kernel_size=(1, 1), stride=(1, 1), bias=False)
      (norm2): BatchNorm2d(192, eps=1e-05, momentum=0.1, affine=True, track_running_stats=True)
      (relu2): ReLU(inplace)
      (conv2): Conv2d(192, 48, kernel_size=(3, 3), stride=(1, 1), padding=(1, 1), bias=False)
    )
    (denselayer13): _DenseLayer(
      (norm1): BatchNorm2d(960, eps=1e-05, momentum=0.1, affine=True, track_running_stats=True)
      (relu1): ReLU(inplace)
      (conv1): Conv2d(960, 192, kernel_size=(1, 1), stride=(1, 1), bias=False)
      (norm2): BatchNorm2d(192, eps=1e-05, momentum=0.1, affine=True, track_running_stats=True)
      (relu2): ReLU(inplace)
      (conv2): Conv2d(192, 48, kernel_size=(3, 3), stride=(1, 1), padding=(1, 1), bias=False)
    )
    (denselayer14): _DenseLayer(
      (norm1): BatchNorm2d(1008, eps=1e-05, momentum=0.1, affine=True, track_running_stats=True)
      (relu1): ReLU(inplace)
      (conv1): Conv2d(1008, 192, kernel_size=(1, 1), stride=(1, 1), bias=False)
      (norm2): BatchNorm2d(192, eps=1e-05, momentum=0.1, affine=True, track_running_stats=True)
      (relu2): ReLU(inplace)
      (conv2): Conv2d(192, 48, kernel_size=(3, 3), stride=(1, 1), padding=(1, 1), bias=False)
    )
    (denselayer15): _DenseLayer(
      (norm1): BatchNorm2d(1056, eps=1e-05, momentum=0.1, affine=True, track_running_stats=True)
      (relu1): ReLU(inplace)
      (conv1): Conv2d(1056, 192, kernel_size=(1, 1), stride=(1, 1), bias=False)
      (norm2): BatchNorm2d(192, eps=1e-05, momentum=0.1, affine=True, track_running_stats=True)
      (relu2): ReLU(inplace)
      (conv2): Conv2d(192, 48, kernel_size=(3, 3), stride=(1, 1), padding=(1, 1), bias=False)
    )
    (denselayer16): _DenseLayer(
      (norm1): BatchNorm2d(1104, eps=1e-05, momentum=0.1, affine=True, track_running_stats=True)
      (relu1): ReLU(inplace)
      (conv1): Conv2d(1104, 192, kernel_size=(1, 1), stride=(1, 1), bias=False)
      (norm2): BatchNorm2d(192, eps=1e-05, momentum=0.1, affine=True, track_running_stats=True)
      (relu2): ReLU(inplace)
      (conv2): Conv2d(192, 48, kernel_size=(3, 3), stride=(1, 1), padding=(1, 1), bias=False)
    )
    (denselayer17): _DenseLayer(
      (norm1): BatchNorm2d(1152, eps=1e-05, momentum=0.1, affine=True, track_running_stats=True)
      (relu1): ReLU(inplace)
      (conv1): Conv2d(1152, 192, kernel_size=(1, 1), stride=(1, 1), bias=False)
      (norm2): BatchNorm2d(192, eps=1e-05, momentum=0.1, affine=True, track_running_stats=True)
      (relu2): ReLU(inplace)
      (conv2): Conv2d(192, 48, kernel_size=(3, 3), stride=(1, 1), padding=(1, 1), bias=False)
    )
    (denselayer18): _DenseLayer(
      (norm1): BatchNorm2d(1200, eps=1e-05, momentum=0.1, affine=True, track_running_stats=True)
      (relu1): ReLU(inplace)
      (conv1): Conv2d(1200, 192, kernel_size=(1, 1), stride=(1, 1), bias=False)
      (norm2): BatchNorm2d(192, eps=1e-05, momentum=0.1, affine=True, track_running_stats=True)
      (relu2): ReLU(inplace)
      (conv2): Conv2d(192, 48, kernel_size=(3, 3), stride=(1, 1), padding=(1, 1), bias=False)
    )
    (denselayer19): _DenseLayer(
      (norm1): BatchNorm2d(1248, eps=1e-05, momentum=0.1, affine=True, track_running_stats=True)
      (relu1): ReLU(inplace)
      (conv1): Conv2d(1248, 192, kernel_size=(1, 1), stride=(1, 1), bias=False)
      (norm2): BatchNorm2d(192, eps=1e-05, momentum=0.1, affine=True, track_running_stats=True)
      (relu2): ReLU(inplace)
      (conv2): Conv2d(192, 48, kernel_size=(3, 3), stride=(1, 1), padding=(1, 1), bias=False)
    )
    (denselayer20): _DenseLayer(
      (norm1): BatchNorm2d(1296, eps=1e-05, momentum=0.1, affine=True, track_running_stats=True)
      (relu1): ReLU(inplace)
      (conv1): Conv2d(1296, 192, kernel_size=(1, 1), stride=(1, 1), bias=False)
      (norm2): BatchNorm2d(192, eps=1e-05, momentum=0.1, affine=True, track_running_stats=True)
      (relu2): ReLU(inplace)
      (conv2): Conv2d(192, 48, kernel_size=(3, 3), stride=(1, 1), padding=(1, 1), bias=False)
    )
    (denselayer21): _DenseLayer(
      (norm1): BatchNorm2d(1344, eps=1e-05, momentum=0.1, affine=True, track_running_stats=True)
      (relu1): ReLU(inplace)
      (conv1): Conv2d(1344, 192, kernel_size=(1, 1), stride=(1, 1), bias=False)
      (norm2): BatchNorm2d(192, eps=1e-05, momentum=0.1, affine=True, track_running_stats=True)
      (relu2): ReLU(inplace)
      (conv2): Conv2d(192, 48, kernel_size=(3, 3), stride=(1, 1), padding=(1, 1), bias=False)
    )
    (denselayer22): _DenseLayer(
      (norm1): BatchNorm2d(1392, eps=1e-05, momentum=0.1, affine=True, track_running_stats=True)
      (relu1): ReLU(inplace)
      (conv1): Conv2d(1392, 192, kernel_size=(1, 1), stride=(1, 1), bias=False)
      (norm2): BatchNorm2d(192, eps=1e-05, momentum=0.1, affine=True, track_running_stats=True)
      (relu2): ReLU(inplace)
      (conv2): Conv2d(192, 48, kernel_size=(3, 3), stride=(1, 1), padding=(1, 1), bias=False)
    )
    (denselayer23): _DenseLayer(
      (norm1): BatchNorm2d(1440, eps=1e-05, momentum=0.1, affine=True, track_running_stats=True)
      (relu1): ReLU(inplace)
      (conv1): Conv2d(1440, 192, kernel_size=(1, 1), stride=(1, 1), bias=False)
      (norm2): BatchNorm2d(192, eps=1e-05, momentum=0.1, affine=True, track_running_stats=True)
      (relu2): ReLU(inplace)
      (conv2): Conv2d(192, 48, kernel_size=(3, 3), stride=(1, 1), padding=(1, 1), bias=False)
    )
    (denselayer24): _DenseLayer(
      (norm1): BatchNorm2d(1488, eps=1e-05, momentum=0.1, affine=True, track_running_stats=True)
      (relu1): ReLU(inplace)
      (conv1): Conv2d(1488, 192, kernel_size=(1, 1), stride=(1, 1), bias=False)
      (norm2): BatchNorm2d(192, eps=1e-05, momentum=0.1, affine=True, track_running_stats=True)
      (relu2): ReLU(inplace)
      (conv2): Conv2d(192, 48, kernel_size=(3, 3), stride=(1, 1), padding=(1, 1), bias=False)
    )
    (denselayer25): _DenseLayer(
      (norm1): BatchNorm2d(1536, eps=1e-05, momentum=0.1, affine=True, track_running_stats=True)
      (relu1): ReLU(inplace)
      (conv1): Conv2d(1536, 192, kernel_size=(1, 1), stride=(1, 1), bias=False)
      (norm2): BatchNorm2d(192, eps=1e-05, momentum=0.1, affine=True, track_running_stats=True)
      (relu2): ReLU(inplace)
      (conv2): Conv2d(192, 48, kernel_size=(3, 3), stride=(1, 1), padding=(1, 1), bias=False)
    )
    (denselayer26): _DenseLayer(
      (norm1): BatchNorm2d(1584, eps=1e-05, momentum=0.1, affine=True, track_running_stats=True)
      (relu1): ReLU(inplace)
      (conv1): Conv2d(1584, 192, kernel_size=(1, 1), stride=(1, 1), bias=False)
      (norm2): BatchNorm2d(192, eps=1e-05, momentum=0.1, affine=True, track_running_stats=True)
      (relu2): ReLU(inplace)
      (conv2): Conv2d(192, 48, kernel_size=(3, 3), stride=(1, 1), padding=(1, 1), bias=False)
    )
    (denselayer27): _DenseLayer(
      (norm1): BatchNorm2d(1632, eps=1e-05, momentum=0.1, affine=True, track_running_stats=True)
      (relu1): ReLU(inplace)
      (conv1): Conv2d(1632, 192, kernel_size=(1, 1), stride=(1, 1), bias=False)
      (norm2): BatchNorm2d(192, eps=1e-05, momentum=0.1, affine=True, track_running_stats=True)
      (relu2): ReLU(inplace)
      (conv2): Conv2d(192, 48, kernel_size=(3, 3), stride=(1, 1), padding=(1, 1), bias=False)
    )
    (denselayer28): _DenseLayer(
      (norm1): BatchNorm2d(1680, eps=1e-05, momentum=0.1, affine=True, track_running_stats=True)
      (relu1): ReLU(inplace)
      (conv1): Conv2d(1680, 192, kernel_size=(1, 1), stride=(1, 1), bias=False)
      (norm2): BatchNorm2d(192, eps=1e-05, momentum=0.1, affine=True, track_running_stats=True)
      (relu2): ReLU(inplace)
      (conv2): Conv2d(192, 48, kernel_size=(3, 3), stride=(1, 1), padding=(1, 1), bias=False)
    )
    (denselayer29): _DenseLayer(
      (norm1): BatchNorm2d(1728, eps=1e-05, momentum=0.1, affine=True, track_running_stats=True)
      (relu1): ReLU(inplace)
      (conv1): Conv2d(1728, 192, kernel_size=(1, 1), stride=(1, 1), bias=False)
      (norm2): BatchNorm2d(192, eps=1e-05, momentum=0.1, affine=True, track_running_stats=True)
      (relu2): ReLU(inplace)
      (conv2): Conv2d(192, 48, kernel_size=(3, 3), stride=(1, 1), padding=(1, 1), bias=False)
    )
    (denselayer30): _DenseLayer(
      (norm1): BatchNorm2d(1776, eps=1e-05, momentum=0.1, affine=True, track_running_stats=True)
      (relu1): ReLU(inplace)
      (conv1): Conv2d(1776, 192, kernel_size=(1, 1), stride=(1, 1), bias=False)
      (norm2): BatchNorm2d(192, eps=1e-05, momentum=0.1, affine=True, track_running_stats=True)
      (relu2): ReLU(inplace)
      (conv2): Conv2d(192, 48, kernel_size=(3, 3), stride=(1, 1), padding=(1, 1), bias=False)
    )
    (denselayer31): _DenseLayer(
      (norm1): BatchNorm2d(1824, eps=1e-05, momentum=0.1, affine=True, track_running_stats=True)
      (relu1): ReLU(inplace)
      (conv1): Conv2d(1824, 192, kernel_size=(1, 1), stride=(1, 1), bias=False)
      (norm2): BatchNorm2d(192, eps=1e-05, momentum=0.1, affine=True, track_running_stats=True)
      (relu2): ReLU(inplace)
      (conv2): Conv2d(192, 48, kernel_size=(3, 3), stride=(1, 1), padding=(1, 1), bias=False)
    )
    (denselayer32): _DenseLayer(
      (norm1): BatchNorm2d(1872, eps=1e-05, momentum=0.1, affine=True, track_running_stats=True)
      (relu1): ReLU(inplace)
      (conv1): Conv2d(1872, 192, kernel_size=(1, 1), stride=(1, 1), bias=False)
      (norm2): BatchNorm2d(192, eps=1e-05, momentum=0.1, affine=True, track_running_stats=True)
      (relu2): ReLU(inplace)
      (conv2): Conv2d(192, 48, kernel_size=(3, 3), stride=(1, 1), padding=(1, 1), bias=False)
    )
    (denselayer33): _DenseLayer(
      (norm1): BatchNorm2d(1920, eps=1e-05, momentum=0.1, affine=True, track_running_stats=True)
      (relu1): ReLU(inplace)
      (conv1): Conv2d(1920, 192, kernel_size=(1, 1), stride=(1, 1), bias=False)
      (norm2): BatchNorm2d(192, eps=1e-05, momentum=0.1, affine=True, track_running_stats=True)
      (relu2): ReLU(inplace)
      (conv2): Conv2d(192, 48, kernel_size=(3, 3), stride=(1, 1), padding=(1, 1), bias=False)
    )
    (denselayer34): _DenseLayer(
      (norm1): BatchNorm2d(1968, eps=1e-05, momentum=0.1, affine=True, track_running_stats=True)
      (relu1): ReLU(inplace)
      (conv1): Conv2d(1968, 192, kernel_size=(1, 1), stride=(1, 1), bias=False)
      (norm2): BatchNorm2d(192, eps=1e-05, momentum=0.1, affine=True, track_running_stats=True)
      (relu2): ReLU(inplace)
      (conv2): Conv2d(192, 48, kernel_size=(3, 3), stride=(1, 1), padding=(1, 1), bias=False)
    )
    (denselayer35): _DenseLayer(
      (norm1): BatchNorm2d(2016, eps=1e-05, momentum=0.1, affine=True, track_running_stats=True)
      (relu1): ReLU(inplace)
      (conv1): Conv2d(2016, 192, kernel_size=(1, 1), stride=(1, 1), bias=False)
      (norm2): BatchNorm2d(192, eps=1e-05, momentum=0.1, affine=True, track_running_stats=True)
      (relu2): ReLU(inplace)
      (conv2): Conv2d(192, 48, kernel_size=(3, 3), stride=(1, 1), padding=(1, 1), bias=False)
    )
    (denselayer36): _DenseLayer(
      (norm1): BatchNorm2d(2064, eps=1e-05, momentum=0.1, affine=True, track_running_stats=True)
      (relu1): ReLU(inplace)
      (conv1): Conv2d(2064, 192, kernel_size=(1, 1), stride=(1, 1), bias=False)
      (norm2): BatchNorm2d(192, eps=1e-05, momentum=0.1, affine=True, track_running_stats=True)
      (relu2): ReLU(inplace)
      (conv2): Conv2d(192, 48, kernel_size=(3, 3), stride=(1, 1), padding=(1, 1), bias=False)
    )
  )
  (transition3): _Transition(
    (norm): BatchNorm2d(2112, eps=1e-05, momentum=0.1, affine=True, track_running_stats=True)
    (relu): ReLU(inplace)
    (conv): Conv2d(2112, 1056, kernel_size=(1, 1), stride=(1, 1), bias=False)
    (pool): AvgPool2d(kernel_size=2, stride=2, padding=0)
  )
  (denseblock4): _DenseBlock(
    (denselayer1): _DenseLayer(
      (norm1): BatchNorm2d(1056, eps=1e-05, momentum=0.1, affine=True, track_running_stats=True)
      (relu1): ReLU(inplace)
      (conv1): Conv2d(1056, 192, kernel_size=(1, 1), stride=(1, 1), bias=False)
      (norm2): BatchNorm2d(192, eps=1e-05, momentum=0.1, affine=True, track_running_stats=True)
      (relu2): ReLU(inplace)
      (conv2): Conv2d(192, 48, kernel_size=(3, 3), stride=(1, 1), padding=(1, 1), bias=False)
    )
    (denselayer2): _DenseLayer(
      (norm1): BatchNorm2d(1104, eps=1e-05, momentum=0.1, affine=True, track_running_stats=True)
      (relu1): ReLU(inplace)
      (conv1): Conv2d(1104, 192, kernel_size=(1, 1), stride=(1, 1), bias=False)
      (norm2): BatchNorm2d(192, eps=1e-05, momentum=0.1, affine=True, track_running_stats=True)
      (relu2): ReLU(inplace)
      (conv2): Conv2d(192, 48, kernel_size=(3, 3), stride=(1, 1), padding=(1, 1), bias=False)
    )
    (denselayer3): _DenseLayer(
      (norm1): BatchNorm2d(1152, eps=1e-05, momentum=0.1, affine=True, track_running_stats=True)
      (relu1): ReLU(inplace)
      (conv1): Conv2d(1152, 192, kernel_size=(1, 1), stride=(1, 1), bias=False)
      (norm2): BatchNorm2d(192, eps=1e-05, momentum=0.1, affine=True, track_running_stats=True)
      (relu2): ReLU(inplace)
      (conv2): Conv2d(192, 48, kernel_size=(3, 3), stride=(1, 1), padding=(1, 1), bias=False)
    )
    (denselayer4): _DenseLayer(
      (norm1): BatchNorm2d(1200, eps=1e-05, momentum=0.1, affine=True, track_running_stats=True)
      (relu1): ReLU(inplace)
      (conv1): Conv2d(1200, 192, kernel_size=(1, 1), stride=(1, 1), bias=False)
      (norm2): BatchNorm2d(192, eps=1e-05, momentum=0.1, affine=True, track_running_stats=True)
      (relu2): ReLU(inplace)
      (conv2): Conv2d(192, 48, kernel_size=(3, 3), stride=(1, 1), padding=(1, 1), bias=False)
    )
    (denselayer5): _DenseLayer(
      (norm1): BatchNorm2d(1248, eps=1e-05, momentum=0.1, affine=True, track_running_stats=True)
      (relu1): ReLU(inplace)
      (conv1): Conv2d(1248, 192, kernel_size=(1, 1), stride=(1, 1), bias=False)
      (norm2): BatchNorm2d(192, eps=1e-05, momentum=0.1, affine=True, track_running_stats=True)
      (relu2): ReLU(inplace)
      (conv2): Conv2d(192, 48, kernel_size=(3, 3), stride=(1, 1), padding=(1, 1), bias=False)
    )
    (denselayer6): _DenseLayer(
      (norm1): BatchNorm2d(1296, eps=1e-05, momentum=0.1, affine=True, track_running_stats=True)
      (relu1): ReLU(inplace)
      (conv1): Conv2d(1296, 192, kernel_size=(1, 1), stride=(1, 1), bias=False)
      (norm2): BatchNorm2d(192, eps=1e-05, momentum=0.1, affine=True, track_running_stats=True)
      (relu2): ReLU(inplace)
      (conv2): Conv2d(192, 48, kernel_size=(3, 3), stride=(1, 1), padding=(1, 1), bias=False)
    )
    (denselayer7): _DenseLayer(
      (norm1): BatchNorm2d(1344, eps=1e-05, momentum=0.1, affine=True, track_running_stats=True)
      (relu1): ReLU(inplace)
      (conv1): Conv2d(1344, 192, kernel_size=(1, 1), stride=(1, 1), bias=False)
      (norm2): BatchNorm2d(192, eps=1e-05, momentum=0.1, affine=True, track_running_stats=True)
      (relu2): ReLU(inplace)
      (conv2): Conv2d(192, 48, kernel_size=(3, 3), stride=(1, 1), padding=(1, 1), bias=False)
    )
    (denselayer8): _DenseLayer(
      (norm1): BatchNorm2d(1392, eps=1e-05, momentum=0.1, affine=True, track_running_stats=True)
      (relu1): ReLU(inplace)
      (conv1): Conv2d(1392, 192, kernel_size=(1, 1), stride=(1, 1), bias=False)
      (norm2): BatchNorm2d(192, eps=1e-05, momentum=0.1, affine=True, track_running_stats=True)
      (relu2): ReLU(inplace)
      (conv2): Conv2d(192, 48, kernel_size=(3, 3), stride=(1, 1), padding=(1, 1), bias=False)
    )
    (denselayer9): _DenseLayer(
      (norm1): BatchNorm2d(1440, eps=1e-05, momentum=0.1, affine=True, track_running_stats=True)
      (relu1): ReLU(inplace)
      (conv1): Conv2d(1440, 192, kernel_size=(1, 1), stride=(1, 1), bias=False)
      (norm2): BatchNorm2d(192, eps=1e-05, momentum=0.1, affine=True, track_running_stats=True)
      (relu2): ReLU(inplace)
      (conv2): Conv2d(192, 48, kernel_size=(3, 3), stride=(1, 1), padding=(1, 1), bias=False)
    )
    (denselayer10): _DenseLayer(
      (norm1): BatchNorm2d(1488, eps=1e-05, momentum=0.1, affine=True, track_running_stats=True)
      (relu1): ReLU(inplace)
      (conv1): Conv2d(1488, 192, kernel_size=(1, 1), stride=(1, 1), bias=False)
      (norm2): BatchNorm2d(192, eps=1e-05, momentum=0.1, affine=True, track_running_stats=True)
      (relu2): ReLU(inplace)
      (conv2): Conv2d(192, 48, kernel_size=(3, 3), stride=(1, 1), padding=(1, 1), bias=False)
    )
    (denselayer11): _DenseLayer(
      (norm1): BatchNorm2d(1536, eps=1e-05, momentum=0.1, affine=True, track_running_stats=True)
      (relu1): ReLU(inplace)
      (conv1): Conv2d(1536, 192, kernel_size=(1, 1), stride=(1, 1), bias=False)
      (norm2): BatchNorm2d(192, eps=1e-05, momentum=0.1, affine=True, track_running_stats=True)
      (relu2): ReLU(inplace)
      (conv2): Conv2d(192, 48, kernel_size=(3, 3), stride=(1, 1), padding=(1, 1), bias=False)
    )
    (denselayer12): _DenseLayer(
      (norm1): BatchNorm2d(1584, eps=1e-05, momentum=0.1, affine=True, track_running_stats=True)
      (relu1): ReLU(inplace)
      (conv1): Conv2d(1584, 192, kernel_size=(1, 1), stride=(1, 1), bias=False)
      (norm2): BatchNorm2d(192, eps=1e-05, momentum=0.1, affine=True, track_running_stats=True)
      (relu2): ReLU(inplace)
      (conv2): Conv2d(192, 48, kernel_size=(3, 3), stride=(1, 1), padding=(1, 1), bias=False)
    )
    (denselayer13): _DenseLayer(
      (norm1): BatchNorm2d(1632, eps=1e-05, momentum=0.1, affine=True, track_running_stats=True)
      (relu1): ReLU(inplace)
      (conv1): Conv2d(1632, 192, kernel_size=(1, 1), stride=(1, 1), bias=False)
      (norm2): BatchNorm2d(192, eps=1e-05, momentum=0.1, affine=True, track_running_stats=True)
      (relu2): ReLU(inplace)
      (conv2): Conv2d(192, 48, kernel_size=(3, 3), stride=(1, 1), padding=(1, 1), bias=False)
    )
    (denselayer14): _DenseLayer(
      (norm1): BatchNorm2d(1680, eps=1e-05, momentum=0.1, affine=True, track_running_stats=True)
      (relu1): ReLU(inplace)
      (conv1): Conv2d(1680, 192, kernel_size=(1, 1), stride=(1, 1), bias=False)
      (norm2): BatchNorm2d(192, eps=1e-05, momentum=0.1, affine=True, track_running_stats=True)
      (relu2): ReLU(inplace)
      (conv2): Conv2d(192, 48, kernel_size=(3, 3), stride=(1, 1), padding=(1, 1), bias=False)
    )
    (denselayer15): _DenseLayer(
      (norm1): BatchNorm2d(1728, eps=1e-05, momentum=0.1, affine=True, track_running_stats=True)
      (relu1): ReLU(inplace)
      (conv1): Conv2d(1728, 192, kernel_size=(1, 1), stride=(1, 1), bias=False)
      (norm2): BatchNorm2d(192, eps=1e-05, momentum=0.1, affine=True, track_running_stats=True)
      (relu2): ReLU(inplace)
      (conv2): Conv2d(192, 48, kernel_size=(3, 3), stride=(1, 1), padding=(1, 1), bias=False)
    )
    (denselayer16): _DenseLayer(
      (norm1): BatchNorm2d(1776, eps=1e-05, momentum=0.1, affine=True, track_running_stats=True)
      (relu1): ReLU(inplace)
      (conv1): Conv2d(1776, 192, kernel_size=(1, 1), stride=(1, 1), bias=False)
      (norm2): BatchNorm2d(192, eps=1e-05, momentum=0.1, affine=True, track_running_stats=True)
      (relu2): ReLU(inplace)
      (conv2): Conv2d(192, 48, kernel_size=(3, 3), stride=(1, 1), padding=(1, 1), bias=False)
    )
    (denselayer17): _DenseLayer(
      (norm1): BatchNorm2d(1824, eps=1e-05, momentum=0.1, affine=True, track_running_stats=True)
      (relu1): ReLU(inplace)
      (conv1): Conv2d(1824, 192, kernel_size=(1, 1), stride=(1, 1), bias=False)
      (norm2): BatchNorm2d(192, eps=1e-05, momentum=0.1, affine=True, track_running_stats=True)
      (relu2): ReLU(inplace)
      (conv2): Conv2d(192, 48, kernel_size=(3, 3), stride=(1, 1), padding=(1, 1), bias=False)
    )
    (denselayer18): _DenseLayer(
      (norm1): BatchNorm2d(1872, eps=1e-05, momentum=0.1, affine=True, track_running_stats=True)
      (relu1): ReLU(inplace)
      (conv1): Conv2d(1872, 192, kernel_size=(1, 1), stride=(1, 1), bias=False)
      (norm2): BatchNorm2d(192, eps=1e-05, momentum=0.1, affine=True, track_running_stats=True)
      (relu2): ReLU(inplace)
      (conv2): Conv2d(192, 48, kernel_size=(3, 3), stride=(1, 1), padding=(1, 1), bias=False)
    )
    (denselayer19): _DenseLayer(
      (norm1): BatchNorm2d(1920, eps=1e-05, momentum=0.1, affine=True, track_running_stats=True)
      (relu1): ReLU(inplace)
      (conv1): Conv2d(1920, 192, kernel_size=(1, 1), stride=(1, 1), bias=False)
      (norm2): BatchNorm2d(192, eps=1e-05, momentum=0.1, affine=True, track_running_stats=True)
      (relu2): ReLU(inplace)
      (conv2): Conv2d(192, 48, kernel_size=(3, 3), stride=(1, 1), padding=(1, 1), bias=False)
    )
    (denselayer20): _DenseLayer(
      (norm1): BatchNorm2d(1968, eps=1e-05, momentum=0.1, affine=True, track_running_stats=True)
      (relu1): ReLU(inplace)
      (conv1): Conv2d(1968, 192, kernel_size=(1, 1), stride=(1, 1), bias=False)
      (norm2): BatchNorm2d(192, eps=1e-05, momentum=0.1, affine=True, track_running_stats=True)
      (relu2): ReLU(inplace)
      (conv2): Conv2d(192, 48, kernel_size=(3, 3), stride=(1, 1), padding=(1, 1), bias=False)
    )
    (denselayer21): _DenseLayer(
      (norm1): BatchNorm2d(2016, eps=1e-05, momentum=0.1, affine=True, track_running_stats=True)
      (relu1): ReLU(inplace)
      (conv1): Conv2d(2016, 192, kernel_size=(1, 1), stride=(1, 1), bias=False)
      (norm2): BatchNorm2d(192, eps=1e-05, momentum=0.1, affine=True, track_running_stats=True)
      (relu2): ReLU(inplace)
      (conv2): Conv2d(192, 48, kernel_size=(3, 3), stride=(1, 1), padding=(1, 1), bias=False)
    )
    (denselayer22): _DenseLayer(
      (norm1): BatchNorm2d(2064, eps=1e-05, momentum=0.1, affine=True, track_running_stats=True)
      (relu1): ReLU(inplace)
      (conv1): Conv2d(2064, 192, kernel_size=(1, 1), stride=(1, 1), bias=False)
      (norm2): BatchNorm2d(192, eps=1e-05, momentum=0.1, affine=True, track_running_stats=True)
      (relu2): ReLU(inplace)
      (conv2): Conv2d(192, 48, kernel_size=(3, 3), stride=(1, 1), padding=(1, 1), bias=False)
    )
    (denselayer23): _DenseLayer(
      (norm1): BatchNorm2d(2112, eps=1e-05, momentum=0.1, affine=True, track_running_stats=True)
      (relu1): ReLU(inplace)
      (conv1): Conv2d(2112, 192, kernel_size=(1, 1), stride=(1, 1), bias=False)
      (norm2): BatchNorm2d(192, eps=1e-05, momentum=0.1, affine=True, track_running_stats=True)
      (relu2): ReLU(inplace)
      (conv2): Conv2d(192, 48, kernel_size=(3, 3), stride=(1, 1), padding=(1, 1), bias=False)
    )
    (denselayer24): _DenseLayer(
      (norm1): BatchNorm2d(2160, eps=1e-05, momentum=0.1, affine=True, track_running_stats=True)
      (relu1): ReLU(inplace)
      (conv1): Conv2d(2160, 192, kernel_size=(1, 1), stride=(1, 1), bias=False)
      (norm2): BatchNorm2d(192, eps=1e-05, momentum=0.1, affine=True, track_running_stats=True)
      (relu2): ReLU(inplace)
      (conv2): Conv2d(192, 48, kernel_size=(3, 3), stride=(1, 1), padding=(1, 1), bias=False)
    )
  )
  (norm5): BatchNorm2d(2208, eps=1e-05, momentum=0.1, affine=True, track_running_stats=True)
)
Conv2d(3, 96, kernel_size=(7, 7), stride=(2, 2), padding=(3, 3), bias=False)
BatchNorm2d(96, eps=1e-05, momentum=0.1, affine=True, track_running_stats=True)
ReLU(inplace)
MaxPool2d(kernel_size=3, stride=2, padding=1, dilation=1, ceil_mode=False)
_DenseBlock(
  (denselayer1): _DenseLayer(
    (norm1): BatchNorm2d(96, eps=1e-05, momentum=0.1, affine=True, track_running_stats=True)
    (relu1): ReLU(inplace)
    (conv1): Conv2d(96, 192, kernel_size=(1, 1), stride=(1, 1), bias=False)
    (norm2): BatchNorm2d(192, eps=1e-05, momentum=0.1, affine=True, track_running_stats=True)
    (relu2): ReLU(inplace)
    (conv2): Conv2d(192, 48, kernel_size=(3, 3), stride=(1, 1), padding=(1, 1), bias=False)
  )
  (denselayer2): _DenseLayer(
    (norm1): BatchNorm2d(144, eps=1e-05, momentum=0.1, affine=True, track_running_stats=True)
    (relu1): ReLU(inplace)
    (conv1): Conv2d(144, 192, kernel_size=(1, 1), stride=(1, 1), bias=False)
    (norm2): BatchNorm2d(192, eps=1e-05, momentum=0.1, affine=True, track_running_stats=True)
    (relu2): ReLU(inplace)
    (conv2): Conv2d(192, 48, kernel_size=(3, 3), stride=(1, 1), padding=(1, 1), bias=False)
  )
  (denselayer3): _DenseLayer(
    (norm1): BatchNorm2d(192, eps=1e-05, momentum=0.1, affine=True, track_running_stats=True)
    (relu1): ReLU(inplace)
    (conv1): Conv2d(192, 192, kernel_size=(1, 1), stride=(1, 1), bias=False)
    (norm2): BatchNorm2d(192, eps=1e-05, momentum=0.1, affine=True, track_running_stats=True)
    (relu2): ReLU(inplace)
    (conv2): Conv2d(192, 48, kernel_size=(3, 3), stride=(1, 1), padding=(1, 1), bias=False)
  )
  (denselayer4): _DenseLayer(
    (norm1): BatchNorm2d(240, eps=1e-05, momentum=0.1, affine=True, track_running_stats=True)
    (relu1): ReLU(inplace)
    (conv1): Conv2d(240, 192, kernel_size=(1, 1), stride=(1, 1), bias=False)
    (norm2): BatchNorm2d(192, eps=1e-05, momentum=0.1, affine=True, track_running_stats=True)
    (relu2): ReLU(inplace)
    (conv2): Conv2d(192, 48, kernel_size=(3, 3), stride=(1, 1), padding=(1, 1), bias=False)
  )
  (denselayer5): _DenseLayer(
    (norm1): BatchNorm2d(288, eps=1e-05, momentum=0.1, affine=True, track_running_stats=True)
    (relu1): ReLU(inplace)
    (conv1): Conv2d(288, 192, kernel_size=(1, 1), stride=(1, 1), bias=False)
    (norm2): BatchNorm2d(192, eps=1e-05, momentum=0.1, affine=True, track_running_stats=True)
    (relu2): ReLU(inplace)
    (conv2): Conv2d(192, 48, kernel_size=(3, 3), stride=(1, 1), padding=(1, 1), bias=False)
  )
  (denselayer6): _DenseLayer(
    (norm1): BatchNorm2d(336, eps=1e-05, momentum=0.1, affine=True, track_running_stats=True)
    (relu1): ReLU(inplace)
    (conv1): Conv2d(336, 192, kernel_size=(1, 1), stride=(1, 1), bias=False)
    (norm2): BatchNorm2d(192, eps=1e-05, momentum=0.1, affine=True, track_running_stats=True)
    (relu2): ReLU(inplace)
    (conv2): Conv2d(192, 48, kernel_size=(3, 3), stride=(1, 1), padding=(1, 1), bias=False)
  )
)
_DenseLayer(
  (norm1): BatchNorm2d(96, eps=1e-05, momentum=0.1, affine=True, track_running_stats=True)
  (relu1): ReLU(inplace)
  (conv1): Conv2d(96, 192, kernel_size=(1, 1), stride=(1, 1), bias=False)
  (norm2): BatchNorm2d(192, eps=1e-05, momentum=0.1, affine=True, track_running_stats=True)
  (relu2): ReLU(inplace)
  (conv2): Conv2d(192, 48, kernel_size=(3, 3), stride=(1, 1), padding=(1, 1), bias=False)
)
BatchNorm2d(96, eps=1e-05, momentum=0.1, affine=True, track_running_stats=True)
ReLU(inplace)
Conv2d(96, 192, kernel_size=(1, 1), stride=(1, 1), bias=False)
BatchNorm2d(192, eps=1e-05, momentum=0.1, affine=True, track_running_stats=True)
ReLU(inplace)
Conv2d(192, 48, kernel_size=(3, 3), stride=(1, 1), padding=(1, 1), bias=False)
_DenseLayer(
  (norm1): BatchNorm2d(144, eps=1e-05, momentum=0.1, affine=True, track_running_stats=True)
  (relu1): ReLU(inplace)
  (conv1): Conv2d(144, 192, kernel_size=(1, 1), stride=(1, 1), bias=False)
  (norm2): BatchNorm2d(192, eps=1e-05, momentum=0.1, affine=True, track_running_stats=True)
  (relu2): ReLU(inplace)
  (conv2): Conv2d(192, 48, kernel_size=(3, 3), stride=(1, 1), padding=(1, 1), bias=False)
)
BatchNorm2d(144, eps=1e-05, momentum=0.1, affine=True, track_running_stats=True)
ReLU(inplace)
Conv2d(144, 192, kernel_size=(1, 1), stride=(1, 1), bias=False)
BatchNorm2d(192, eps=1e-05, momentum=0.1, affine=True, track_running_stats=True)
ReLU(inplace)
Conv2d(192, 48, kernel_size=(3, 3), stride=(1, 1), padding=(1, 1), bias=False)
_DenseLayer(
  (norm1): BatchNorm2d(192, eps=1e-05, momentum=0.1, affine=True, track_running_stats=True)
  (relu1): ReLU(inplace)
  (conv1): Conv2d(192, 192, kernel_size=(1, 1), stride=(1, 1), bias=False)
  (norm2): BatchNorm2d(192, eps=1e-05, momentum=0.1, affine=True, track_running_stats=True)
  (relu2): ReLU(inplace)
  (conv2): Conv2d(192, 48, kernel_size=(3, 3), stride=(1, 1), padding=(1, 1), bias=False)
)
BatchNorm2d(192, eps=1e-05, momentum=0.1, affine=True, track_running_stats=True)
ReLU(inplace)
Conv2d(192, 192, kernel_size=(1, 1), stride=(1, 1), bias=False)
BatchNorm2d(192, eps=1e-05, momentum=0.1, affine=True, track_running_stats=True)
ReLU(inplace)
Conv2d(192, 48, kernel_size=(3, 3), stride=(1, 1), padding=(1, 1), bias=False)
_DenseLayer(
  (norm1): BatchNorm2d(240, eps=1e-05, momentum=0.1, affine=True, track_running_stats=True)
  (relu1): ReLU(inplace)
  (conv1): Conv2d(240, 192, kernel_size=(1, 1), stride=(1, 1), bias=False)
  (norm2): BatchNorm2d(192, eps=1e-05, momentum=0.1, affine=True, track_running_stats=True)
  (relu2): ReLU(inplace)
  (conv2): Conv2d(192, 48, kernel_size=(3, 3), stride=(1, 1), padding=(1, 1), bias=False)
)
BatchNorm2d(240, eps=1e-05, momentum=0.1, affine=True, track_running_stats=True)
ReLU(inplace)
Conv2d(240, 192, kernel_size=(1, 1), stride=(1, 1), bias=False)
BatchNorm2d(192, eps=1e-05, momentum=0.1, affine=True, track_running_stats=True)
ReLU(inplace)
Conv2d(192, 48, kernel_size=(3, 3), stride=(1, 1), padding=(1, 1), bias=False)
_DenseLayer(
  (norm1): BatchNorm2d(288, eps=1e-05, momentum=0.1, affine=True, track_running_stats=True)
  (relu1): ReLU(inplace)
  (conv1): Conv2d(288, 192, kernel_size=(1, 1), stride=(1, 1), bias=False)
  (norm2): BatchNorm2d(192, eps=1e-05, momentum=0.1, affine=True, track_running_stats=True)
  (relu2): ReLU(inplace)
  (conv2): Conv2d(192, 48, kernel_size=(3, 3), stride=(1, 1), padding=(1, 1), bias=False)
)
BatchNorm2d(288, eps=1e-05, momentum=0.1, affine=True, track_running_stats=True)
ReLU(inplace)
Conv2d(288, 192, kernel_size=(1, 1), stride=(1, 1), bias=False)
BatchNorm2d(192, eps=1e-05, momentum=0.1, affine=True, track_running_stats=True)
ReLU(inplace)
Conv2d(192, 48, kernel_size=(3, 3), stride=(1, 1), padding=(1, 1), bias=False)
_DenseLayer(
  (norm1): BatchNorm2d(336, eps=1e-05, momentum=0.1, affine=True, track_running_stats=True)
  (relu1): ReLU(inplace)
  (conv1): Conv2d(336, 192, kernel_size=(1, 1), stride=(1, 1), bias=False)
  (norm2): BatchNorm2d(192, eps=1e-05, momentum=0.1, affine=True, track_running_stats=True)
  (relu2): ReLU(inplace)
  (conv2): Conv2d(192, 48, kernel_size=(3, 3), stride=(1, 1), padding=(1, 1), bias=False)
)
BatchNorm2d(336, eps=1e-05, momentum=0.1, affine=True, track_running_stats=True)
ReLU(inplace)
Conv2d(336, 192, kernel_size=(1, 1), stride=(1, 1), bias=False)
BatchNorm2d(192, eps=1e-05, momentum=0.1, affine=True, track_running_stats=True)
ReLU(inplace)
Conv2d(192, 48, kernel_size=(3, 3), stride=(1, 1), padding=(1, 1), bias=False)
_Transition(
  (norm): BatchNorm2d(384, eps=1e-05, momentum=0.1, affine=True, track_running_stats=True)
  (relu): ReLU(inplace)
  (conv): Conv2d(384, 192, kernel_size=(1, 1), stride=(1, 1), bias=False)
  (pool): AvgPool2d(kernel_size=2, stride=2, padding=0)
)
BatchNorm2d(384, eps=1e-05, momentum=0.1, affine=True, track_running_stats=True)
ReLU(inplace)
Conv2d(384, 192, kernel_size=(1, 1), stride=(1, 1), bias=False)
AvgPool2d(kernel_size=2, stride=2, padding=0)
_DenseBlock(
  (denselayer1): _DenseLayer(
    (norm1): BatchNorm2d(192, eps=1e-05, momentum=0.1, affine=True, track_running_stats=True)
    (relu1): ReLU(inplace)
    (conv1): Conv2d(192, 192, kernel_size=(1, 1), stride=(1, 1), bias=False)
    (norm2): BatchNorm2d(192, eps=1e-05, momentum=0.1, affine=True, track_running_stats=True)
    (relu2): ReLU(inplace)
    (conv2): Conv2d(192, 48, kernel_size=(3, 3), stride=(1, 1), padding=(1, 1), bias=False)
  )
  (denselayer2): _DenseLayer(
    (norm1): BatchNorm2d(240, eps=1e-05, momentum=0.1, affine=True, track_running_stats=True)
    (relu1): ReLU(inplace)
    (conv1): Conv2d(240, 192, kernel_size=(1, 1), stride=(1, 1), bias=False)
    (norm2): BatchNorm2d(192, eps=1e-05, momentum=0.1, affine=True, track_running_stats=True)
    (relu2): ReLU(inplace)
    (conv2): Conv2d(192, 48, kernel_size=(3, 3), stride=(1, 1), padding=(1, 1), bias=False)
  )
  (denselayer3): _DenseLayer(
    (norm1): BatchNorm2d(288, eps=1e-05, momentum=0.1, affine=True, track_running_stats=True)
    (relu1): ReLU(inplace)
    (conv1): Conv2d(288, 192, kernel_size=(1, 1), stride=(1, 1), bias=False)
    (norm2): BatchNorm2d(192, eps=1e-05, momentum=0.1, affine=True, track_running_stats=True)
    (relu2): ReLU(inplace)
    (conv2): Conv2d(192, 48, kernel_size=(3, 3), stride=(1, 1), padding=(1, 1), bias=False)
  )
  (denselayer4): _DenseLayer(
    (norm1): BatchNorm2d(336, eps=1e-05, momentum=0.1, affine=True, track_running_stats=True)
    (relu1): ReLU(inplace)
    (conv1): Conv2d(336, 192, kernel_size=(1, 1), stride=(1, 1), bias=False)
    (norm2): BatchNorm2d(192, eps=1e-05, momentum=0.1, affine=True, track_running_stats=True)
    (relu2): ReLU(inplace)
    (conv2): Conv2d(192, 48, kernel_size=(3, 3), stride=(1, 1), padding=(1, 1), bias=False)
  )
  (denselayer5): _DenseLayer(
    (norm1): BatchNorm2d(384, eps=1e-05, momentum=0.1, affine=True, track_running_stats=True)
    (relu1): ReLU(inplace)
    (conv1): Conv2d(384, 192, kernel_size=(1, 1), stride=(1, 1), bias=False)
    (norm2): BatchNorm2d(192, eps=1e-05, momentum=0.1, affine=True, track_running_stats=True)
    (relu2): ReLU(inplace)
    (conv2): Conv2d(192, 48, kernel_size=(3, 3), stride=(1, 1), padding=(1, 1), bias=False)
  )
  (denselayer6): _DenseLayer(
    (norm1): BatchNorm2d(432, eps=1e-05, momentum=0.1, affine=True, track_running_stats=True)
    (relu1): ReLU(inplace)
    (conv1): Conv2d(432, 192, kernel_size=(1, 1), stride=(1, 1), bias=False)
    (norm2): BatchNorm2d(192, eps=1e-05, momentum=0.1, affine=True, track_running_stats=True)
    (relu2): ReLU(inplace)
    (conv2): Conv2d(192, 48, kernel_size=(3, 3), stride=(1, 1), padding=(1, 1), bias=False)
  )
  (denselayer7): _DenseLayer(
    (norm1): BatchNorm2d(480, eps=1e-05, momentum=0.1, affine=True, track_running_stats=True)
    (relu1): ReLU(inplace)
    (conv1): Conv2d(480, 192, kernel_size=(1, 1), stride=(1, 1), bias=False)
    (norm2): BatchNorm2d(192, eps=1e-05, momentum=0.1, affine=True, track_running_stats=True)
    (relu2): ReLU(inplace)
    (conv2): Conv2d(192, 48, kernel_size=(3, 3), stride=(1, 1), padding=(1, 1), bias=False)
  )
  (denselayer8): _DenseLayer(
    (norm1): BatchNorm2d(528, eps=1e-05, momentum=0.1, affine=True, track_running_stats=True)
    (relu1): ReLU(inplace)
    (conv1): Conv2d(528, 192, kernel_size=(1, 1), stride=(1, 1), bias=False)
    (norm2): BatchNorm2d(192, eps=1e-05, momentum=0.1, affine=True, track_running_stats=True)
    (relu2): ReLU(inplace)
    (conv2): Conv2d(192, 48, kernel_size=(3, 3), stride=(1, 1), padding=(1, 1), bias=False)
  )
  (denselayer9): _DenseLayer(
    (norm1): BatchNorm2d(576, eps=1e-05, momentum=0.1, affine=True, track_running_stats=True)
    (relu1): ReLU(inplace)
    (conv1): Conv2d(576, 192, kernel_size=(1, 1), stride=(1, 1), bias=False)
    (norm2): BatchNorm2d(192, eps=1e-05, momentum=0.1, affine=True, track_running_stats=True)
    (relu2): ReLU(inplace)
    (conv2): Conv2d(192, 48, kernel_size=(3, 3), stride=(1, 1), padding=(1, 1), bias=False)
  )
  (denselayer10): _DenseLayer(
    (norm1): BatchNorm2d(624, eps=1e-05, momentum=0.1, affine=True, track_running_stats=True)
    (relu1): ReLU(inplace)
    (conv1): Conv2d(624, 192, kernel_size=(1, 1), stride=(1, 1), bias=False)
    (norm2): BatchNorm2d(192, eps=1e-05, momentum=0.1, affine=True, track_running_stats=True)
    (relu2): ReLU(inplace)
    (conv2): Conv2d(192, 48, kernel_size=(3, 3), stride=(1, 1), padding=(1, 1), bias=False)
  )
  (denselayer11): _DenseLayer(
    (norm1): BatchNorm2d(672, eps=1e-05, momentum=0.1, affine=True, track_running_stats=True)
    (relu1): ReLU(inplace)
    (conv1): Conv2d(672, 192, kernel_size=(1, 1), stride=(1, 1), bias=False)
    (norm2): BatchNorm2d(192, eps=1e-05, momentum=0.1, affine=True, track_running_stats=True)
    (relu2): ReLU(inplace)
    (conv2): Conv2d(192, 48, kernel_size=(3, 3), stride=(1, 1), padding=(1, 1), bias=False)
  )
  (denselayer12): _DenseLayer(
    (norm1): BatchNorm2d(720, eps=1e-05, momentum=0.1, affine=True, track_running_stats=True)
    (relu1): ReLU(inplace)
    (conv1): Conv2d(720, 192, kernel_size=(1, 1), stride=(1, 1), bias=False)
    (norm2): BatchNorm2d(192, eps=1e-05, momentum=0.1, affine=True, track_running_stats=True)
    (relu2): ReLU(inplace)
    (conv2): Conv2d(192, 48, kernel_size=(3, 3), stride=(1, 1), padding=(1, 1), bias=False)
  )
)
_DenseLayer(
  (norm1): BatchNorm2d(192, eps=1e-05, momentum=0.1, affine=True, track_running_stats=True)
  (relu1): ReLU(inplace)
  (conv1): Conv2d(192, 192, kernel_size=(1, 1), stride=(1, 1), bias=False)
  (norm2): BatchNorm2d(192, eps=1e-05, momentum=0.1, affine=True, track_running_stats=True)
  (relu2): ReLU(inplace)
  (conv2): Conv2d(192, 48, kernel_size=(3, 3), stride=(1, 1), padding=(1, 1), bias=False)
)
BatchNorm2d(192, eps=1e-05, momentum=0.1, affine=True, track_running_stats=True)
ReLU(inplace)
Conv2d(192, 192, kernel_size=(1, 1), stride=(1, 1), bias=False)
BatchNorm2d(192, eps=1e-05, momentum=0.1, affine=True, track_running_stats=True)
ReLU(inplace)
Conv2d(192, 48, kernel_size=(3, 3), stride=(1, 1), padding=(1, 1), bias=False)
_DenseLayer(
  (norm1): BatchNorm2d(240, eps=1e-05, momentum=0.1, affine=True, track_running_stats=True)
  (relu1): ReLU(inplace)
  (conv1): Conv2d(240, 192, kernel_size=(1, 1), stride=(1, 1), bias=False)
  (norm2): BatchNorm2d(192, eps=1e-05, momentum=0.1, affine=True, track_running_stats=True)
  (relu2): ReLU(inplace)
  (conv2): Conv2d(192, 48, kernel_size=(3, 3), stride=(1, 1), padding=(1, 1), bias=False)
)
BatchNorm2d(240, eps=1e-05, momentum=0.1, affine=True, track_running_stats=True)
ReLU(inplace)
Conv2d(240, 192, kernel_size=(1, 1), stride=(1, 1), bias=False)
BatchNorm2d(192, eps=1e-05, momentum=0.1, affine=True, track_running_stats=True)
ReLU(inplace)
Conv2d(192, 48, kernel_size=(3, 3), stride=(1, 1), padding=(1, 1), bias=False)
_DenseLayer(
  (norm1): BatchNorm2d(288, eps=1e-05, momentum=0.1, affine=True, track_running_stats=True)
  (relu1): ReLU(inplace)
  (conv1): Conv2d(288, 192, kernel_size=(1, 1), stride=(1, 1), bias=False)
  (norm2): BatchNorm2d(192, eps=1e-05, momentum=0.1, affine=True, track_running_stats=True)
  (relu2): ReLU(inplace)
  (conv2): Conv2d(192, 48, kernel_size=(3, 3), stride=(1, 1), padding=(1, 1), bias=False)
)
BatchNorm2d(288, eps=1e-05, momentum=0.1, affine=True, track_running_stats=True)
ReLU(inplace)
Conv2d(288, 192, kernel_size=(1, 1), stride=(1, 1), bias=False)
BatchNorm2d(192, eps=1e-05, momentum=0.1, affine=True, track_running_stats=True)
ReLU(inplace)
Conv2d(192, 48, kernel_size=(3, 3), stride=(1, 1), padding=(1, 1), bias=False)
_DenseLayer(
  (norm1): BatchNorm2d(336, eps=1e-05, momentum=0.1, affine=True, track_running_stats=True)
  (relu1): ReLU(inplace)
  (conv1): Conv2d(336, 192, kernel_size=(1, 1), stride=(1, 1), bias=False)
  (norm2): BatchNorm2d(192, eps=1e-05, momentum=0.1, affine=True, track_running_stats=True)
  (relu2): ReLU(inplace)
  (conv2): Conv2d(192, 48, kernel_size=(3, 3), stride=(1, 1), padding=(1, 1), bias=False)
)
BatchNorm2d(336, eps=1e-05, momentum=0.1, affine=True, track_running_stats=True)
ReLU(inplace)
Conv2d(336, 192, kernel_size=(1, 1), stride=(1, 1), bias=False)
BatchNorm2d(192, eps=1e-05, momentum=0.1, affine=True, track_running_stats=True)
ReLU(inplace)
Conv2d(192, 48, kernel_size=(3, 3), stride=(1, 1), padding=(1, 1), bias=False)
_DenseLayer(
  (norm1): BatchNorm2d(384, eps=1e-05, momentum=0.1, affine=True, track_running_stats=True)
  (relu1): ReLU(inplace)
  (conv1): Conv2d(384, 192, kernel_size=(1, 1), stride=(1, 1), bias=False)
  (norm2): BatchNorm2d(192, eps=1e-05, momentum=0.1, affine=True, track_running_stats=True)
  (relu2): ReLU(inplace)
  (conv2): Conv2d(192, 48, kernel_size=(3, 3), stride=(1, 1), padding=(1, 1), bias=False)
)
BatchNorm2d(384, eps=1e-05, momentum=0.1, affine=True, track_running_stats=True)
ReLU(inplace)
Conv2d(384, 192, kernel_size=(1, 1), stride=(1, 1), bias=False)
BatchNorm2d(192, eps=1e-05, momentum=0.1, affine=True, track_running_stats=True)
ReLU(inplace)
Conv2d(192, 48, kernel_size=(3, 3), stride=(1, 1), padding=(1, 1), bias=False)
_DenseLayer(
  (norm1): BatchNorm2d(432, eps=1e-05, momentum=0.1, affine=True, track_running_stats=True)
  (relu1): ReLU(inplace)
  (conv1): Conv2d(432, 192, kernel_size=(1, 1), stride=(1, 1), bias=False)
  (norm2): BatchNorm2d(192, eps=1e-05, momentum=0.1, affine=True, track_running_stats=True)
  (relu2): ReLU(inplace)
  (conv2): Conv2d(192, 48, kernel_size=(3, 3), stride=(1, 1), padding=(1, 1), bias=False)
)
BatchNorm2d(432, eps=1e-05, momentum=0.1, affine=True, track_running_stats=True)
ReLU(inplace)
Conv2d(432, 192, kernel_size=(1, 1), stride=(1, 1), bias=False)
BatchNorm2d(192, eps=1e-05, momentum=0.1, affine=True, track_running_stats=True)
ReLU(inplace)
Conv2d(192, 48, kernel_size=(3, 3), stride=(1, 1), padding=(1, 1), bias=False)
_DenseLayer(
  (norm1): BatchNorm2d(480, eps=1e-05, momentum=0.1, affine=True, track_running_stats=True)
  (relu1): ReLU(inplace)
  (conv1): Conv2d(480, 192, kernel_size=(1, 1), stride=(1, 1), bias=False)
  (norm2): BatchNorm2d(192, eps=1e-05, momentum=0.1, affine=True, track_running_stats=True)
  (relu2): ReLU(inplace)
  (conv2): Conv2d(192, 48, kernel_size=(3, 3), stride=(1, 1), padding=(1, 1), bias=False)
)
BatchNorm2d(480, eps=1e-05, momentum=0.1, affine=True, track_running_stats=True)
ReLU(inplace)
Conv2d(480, 192, kernel_size=(1, 1), stride=(1, 1), bias=False)
BatchNorm2d(192, eps=1e-05, momentum=0.1, affine=True, track_running_stats=True)
ReLU(inplace)
Conv2d(192, 48, kernel_size=(3, 3), stride=(1, 1), padding=(1, 1), bias=False)
_DenseLayer(
  (norm1): BatchNorm2d(528, eps=1e-05, momentum=0.1, affine=True, track_running_stats=True)
  (relu1): ReLU(inplace)
  (conv1): Conv2d(528, 192, kernel_size=(1, 1), stride=(1, 1), bias=False)
  (norm2): BatchNorm2d(192, eps=1e-05, momentum=0.1, affine=True, track_running_stats=True)
  (relu2): ReLU(inplace)
  (conv2): Conv2d(192, 48, kernel_size=(3, 3), stride=(1, 1), padding=(1, 1), bias=False)
)
BatchNorm2d(528, eps=1e-05, momentum=0.1, affine=True, track_running_stats=True)
ReLU(inplace)
Conv2d(528, 192, kernel_size=(1, 1), stride=(1, 1), bias=False)
BatchNorm2d(192, eps=1e-05, momentum=0.1, affine=True, track_running_stats=True)
ReLU(inplace)
Conv2d(192, 48, kernel_size=(3, 3), stride=(1, 1), padding=(1, 1), bias=False)
_DenseLayer(
  (norm1): BatchNorm2d(576, eps=1e-05, momentum=0.1, affine=True, track_running_stats=True)
  (relu1): ReLU(inplace)
  (conv1): Conv2d(576, 192, kernel_size=(1, 1), stride=(1, 1), bias=False)
  (norm2): BatchNorm2d(192, eps=1e-05, momentum=0.1, affine=True, track_running_stats=True)
  (relu2): ReLU(inplace)
  (conv2): Conv2d(192, 48, kernel_size=(3, 3), stride=(1, 1), padding=(1, 1), bias=False)
)
BatchNorm2d(576, eps=1e-05, momentum=0.1, affine=True, track_running_stats=True)
ReLU(inplace)
Conv2d(576, 192, kernel_size=(1, 1), stride=(1, 1), bias=False)
BatchNorm2d(192, eps=1e-05, momentum=0.1, affine=True, track_running_stats=True)
ReLU(inplace)
Conv2d(192, 48, kernel_size=(3, 3), stride=(1, 1), padding=(1, 1), bias=False)
_DenseLayer(
  (norm1): BatchNorm2d(624, eps=1e-05, momentum=0.1, affine=True, track_running_stats=True)
  (relu1): ReLU(inplace)
  (conv1): Conv2d(624, 192, kernel_size=(1, 1), stride=(1, 1), bias=False)
  (norm2): BatchNorm2d(192, eps=1e-05, momentum=0.1, affine=True, track_running_stats=True)
  (relu2): ReLU(inplace)
  (conv2): Conv2d(192, 48, kernel_size=(3, 3), stride=(1, 1), padding=(1, 1), bias=False)
)
BatchNorm2d(624, eps=1e-05, momentum=0.1, affine=True, track_running_stats=True)
ReLU(inplace)
Conv2d(624, 192, kernel_size=(1, 1), stride=(1, 1), bias=False)
BatchNorm2d(192, eps=1e-05, momentum=0.1, affine=True, track_running_stats=True)
ReLU(inplace)
Conv2d(192, 48, kernel_size=(3, 3), stride=(1, 1), padding=(1, 1), bias=False)
_DenseLayer(
  (norm1): BatchNorm2d(672, eps=1e-05, momentum=0.1, affine=True, track_running_stats=True)
  (relu1): ReLU(inplace)
  (conv1): Conv2d(672, 192, kernel_size=(1, 1), stride=(1, 1), bias=False)
  (norm2): BatchNorm2d(192, eps=1e-05, momentum=0.1, affine=True, track_running_stats=True)
  (relu2): ReLU(inplace)
  (conv2): Conv2d(192, 48, kernel_size=(3, 3), stride=(1, 1), padding=(1, 1), bias=False)
)
BatchNorm2d(672, eps=1e-05, momentum=0.1, affine=True, track_running_stats=True)
ReLU(inplace)
Conv2d(672, 192, kernel_size=(1, 1), stride=(1, 1), bias=False)
BatchNorm2d(192, eps=1e-05, momentum=0.1, affine=True, track_running_stats=True)
ReLU(inplace)
Conv2d(192, 48, kernel_size=(3, 3), stride=(1, 1), padding=(1, 1), bias=False)
_DenseLayer(
  (norm1): BatchNorm2d(720, eps=1e-05, momentum=0.1, affine=True, track_running_stats=True)
  (relu1): ReLU(inplace)
  (conv1): Conv2d(720, 192, kernel_size=(1, 1), stride=(1, 1), bias=False)
  (norm2): BatchNorm2d(192, eps=1e-05, momentum=0.1, affine=True, track_running_stats=True)
  (relu2): ReLU(inplace)
  (conv2): Conv2d(192, 48, kernel_size=(3, 3), stride=(1, 1), padding=(1, 1), bias=False)
)
BatchNorm2d(720, eps=1e-05, momentum=0.1, affine=True, track_running_stats=True)
ReLU(inplace)
Conv2d(720, 192, kernel_size=(1, 1), stride=(1, 1), bias=False)
BatchNorm2d(192, eps=1e-05, momentum=0.1, affine=True, track_running_stats=True)
ReLU(inplace)
Conv2d(192, 48, kernel_size=(3, 3), stride=(1, 1), padding=(1, 1), bias=False)
_Transition(
  (norm): BatchNorm2d(768, eps=1e-05, momentum=0.1, affine=True, track_running_stats=True)
  (relu): ReLU(inplace)
  (conv): Conv2d(768, 384, kernel_size=(1, 1), stride=(1, 1), bias=False)
  (pool): AvgPool2d(kernel_size=2, stride=2, padding=0)
)
BatchNorm2d(768, eps=1e-05, momentum=0.1, affine=True, track_running_stats=True)
ReLU(inplace)
Conv2d(768, 384, kernel_size=(1, 1), stride=(1, 1), bias=False)
AvgPool2d(kernel_size=2, stride=2, padding=0)
_DenseBlock(
  (denselayer1): _DenseLayer(
    (norm1): BatchNorm2d(384, eps=1e-05, momentum=0.1, affine=True, track_running_stats=True)
    (relu1): ReLU(inplace)
    (conv1): Conv2d(384, 192, kernel_size=(1, 1), stride=(1, 1), bias=False)
    (norm2): BatchNorm2d(192, eps=1e-05, momentum=0.1, affine=True, track_running_stats=True)
    (relu2): ReLU(inplace)
    (conv2): Conv2d(192, 48, kernel_size=(3, 3), stride=(1, 1), padding=(1, 1), bias=False)
  )
  (denselayer2): _DenseLayer(
    (norm1): BatchNorm2d(432, eps=1e-05, momentum=0.1, affine=True, track_running_stats=True)
    (relu1): ReLU(inplace)
    (conv1): Conv2d(432, 192, kernel_size=(1, 1), stride=(1, 1), bias=False)
    (norm2): BatchNorm2d(192, eps=1e-05, momentum=0.1, affine=True, track_running_stats=True)
    (relu2): ReLU(inplace)
    (conv2): Conv2d(192, 48, kernel_size=(3, 3), stride=(1, 1), padding=(1, 1), bias=False)
  )
  (denselayer3): _DenseLayer(
    (norm1): BatchNorm2d(480, eps=1e-05, momentum=0.1, affine=True, track_running_stats=True)
    (relu1): ReLU(inplace)
    (conv1): Conv2d(480, 192, kernel_size=(1, 1), stride=(1, 1), bias=False)
    (norm2): BatchNorm2d(192, eps=1e-05, momentum=0.1, affine=True, track_running_stats=True)
    (relu2): ReLU(inplace)
    (conv2): Conv2d(192, 48, kernel_size=(3, 3), stride=(1, 1), padding=(1, 1), bias=False)
  )
  (denselayer4): _DenseLayer(
    (norm1): BatchNorm2d(528, eps=1e-05, momentum=0.1, affine=True, track_running_stats=True)
    (relu1): ReLU(inplace)
    (conv1): Conv2d(528, 192, kernel_size=(1, 1), stride=(1, 1), bias=False)
    (norm2): BatchNorm2d(192, eps=1e-05, momentum=0.1, affine=True, track_running_stats=True)
    (relu2): ReLU(inplace)
    (conv2): Conv2d(192, 48, kernel_size=(3, 3), stride=(1, 1), padding=(1, 1), bias=False)
  )
  (denselayer5): _DenseLayer(
    (norm1): BatchNorm2d(576, eps=1e-05, momentum=0.1, affine=True, track_running_stats=True)
    (relu1): ReLU(inplace)
    (conv1): Conv2d(576, 192, kernel_size=(1, 1), stride=(1, 1), bias=False)
    (norm2): BatchNorm2d(192, eps=1e-05, momentum=0.1, affine=True, track_running_stats=True)
    (relu2): ReLU(inplace)
    (conv2): Conv2d(192, 48, kernel_size=(3, 3), stride=(1, 1), padding=(1, 1), bias=False)
  )
  (denselayer6): _DenseLayer(
    (norm1): BatchNorm2d(624, eps=1e-05, momentum=0.1, affine=True, track_running_stats=True)
    (relu1): ReLU(inplace)
    (conv1): Conv2d(624, 192, kernel_size=(1, 1), stride=(1, 1), bias=False)
    (norm2): BatchNorm2d(192, eps=1e-05, momentum=0.1, affine=True, track_running_stats=True)
    (relu2): ReLU(inplace)
    (conv2): Conv2d(192, 48, kernel_size=(3, 3), stride=(1, 1), padding=(1, 1), bias=False)
  )
  (denselayer7): _DenseLayer(
    (norm1): BatchNorm2d(672, eps=1e-05, momentum=0.1, affine=True, track_running_stats=True)
    (relu1): ReLU(inplace)
    (conv1): Conv2d(672, 192, kernel_size=(1, 1), stride=(1, 1), bias=False)
    (norm2): BatchNorm2d(192, eps=1e-05, momentum=0.1, affine=True, track_running_stats=True)
    (relu2): ReLU(inplace)
    (conv2): Conv2d(192, 48, kernel_size=(3, 3), stride=(1, 1), padding=(1, 1), bias=False)
  )
  (denselayer8): _DenseLayer(
    (norm1): BatchNorm2d(720, eps=1e-05, momentum=0.1, affine=True, track_running_stats=True)
    (relu1): ReLU(inplace)
    (conv1): Conv2d(720, 192, kernel_size=(1, 1), stride=(1, 1), bias=False)
    (norm2): BatchNorm2d(192, eps=1e-05, momentum=0.1, affine=True, track_running_stats=True)
    (relu2): ReLU(inplace)
    (conv2): Conv2d(192, 48, kernel_size=(3, 3), stride=(1, 1), padding=(1, 1), bias=False)
  )
  (denselayer9): _DenseLayer(
    (norm1): BatchNorm2d(768, eps=1e-05, momentum=0.1, affine=True, track_running_stats=True)
    (relu1): ReLU(inplace)
    (conv1): Conv2d(768, 192, kernel_size=(1, 1), stride=(1, 1), bias=False)
    (norm2): BatchNorm2d(192, eps=1e-05, momentum=0.1, affine=True, track_running_stats=True)
    (relu2): ReLU(inplace)
    (conv2): Conv2d(192, 48, kernel_size=(3, 3), stride=(1, 1), padding=(1, 1), bias=False)
  )
  (denselayer10): _DenseLayer(
    (norm1): BatchNorm2d(816, eps=1e-05, momentum=0.1, affine=True, track_running_stats=True)
    (relu1): ReLU(inplace)
    (conv1): Conv2d(816, 192, kernel_size=(1, 1), stride=(1, 1), bias=False)
    (norm2): BatchNorm2d(192, eps=1e-05, momentum=0.1, affine=True, track_running_stats=True)
    (relu2): ReLU(inplace)
    (conv2): Conv2d(192, 48, kernel_size=(3, 3), stride=(1, 1), padding=(1, 1), bias=False)
  )
  (denselayer11): _DenseLayer(
    (norm1): BatchNorm2d(864, eps=1e-05, momentum=0.1, affine=True, track_running_stats=True)
    (relu1): ReLU(inplace)
    (conv1): Conv2d(864, 192, kernel_size=(1, 1), stride=(1, 1), bias=False)
    (norm2): BatchNorm2d(192, eps=1e-05, momentum=0.1, affine=True, track_running_stats=True)
    (relu2): ReLU(inplace)
    (conv2): Conv2d(192, 48, kernel_size=(3, 3), stride=(1, 1), padding=(1, 1), bias=False)
  )
  (denselayer12): _DenseLayer(
    (norm1): BatchNorm2d(912, eps=1e-05, momentum=0.1, affine=True, track_running_stats=True)
    (relu1): ReLU(inplace)
    (conv1): Conv2d(912, 192, kernel_size=(1, 1), stride=(1, 1), bias=False)
    (norm2): BatchNorm2d(192, eps=1e-05, momentum=0.1, affine=True, track_running_stats=True)
    (relu2): ReLU(inplace)
    (conv2): Conv2d(192, 48, kernel_size=(3, 3), stride=(1, 1), padding=(1, 1), bias=False)
  )
  (denselayer13): _DenseLayer(
    (norm1): BatchNorm2d(960, eps=1e-05, momentum=0.1, affine=True, track_running_stats=True)
    (relu1): ReLU(inplace)
    (conv1): Conv2d(960, 192, kernel_size=(1, 1), stride=(1, 1), bias=False)
    (norm2): BatchNorm2d(192, eps=1e-05, momentum=0.1, affine=True, track_running_stats=True)
    (relu2): ReLU(inplace)
    (conv2): Conv2d(192, 48, kernel_size=(3, 3), stride=(1, 1), padding=(1, 1), bias=False)
  )
  (denselayer14): _DenseLayer(
    (norm1): BatchNorm2d(1008, eps=1e-05, momentum=0.1, affine=True, track_running_stats=True)
    (relu1): ReLU(inplace)
    (conv1): Conv2d(1008, 192, kernel_size=(1, 1), stride=(1, 1), bias=False)
    (norm2): BatchNorm2d(192, eps=1e-05, momentum=0.1, affine=True, track_running_stats=True)
    (relu2): ReLU(inplace)
    (conv2): Conv2d(192, 48, kernel_size=(3, 3), stride=(1, 1), padding=(1, 1), bias=False)
  )
  (denselayer15): _DenseLayer(
    (norm1): BatchNorm2d(1056, eps=1e-05, momentum=0.1, affine=True, track_running_stats=True)
    (relu1): ReLU(inplace)
    (conv1): Conv2d(1056, 192, kernel_size=(1, 1), stride=(1, 1), bias=False)
    (norm2): BatchNorm2d(192, eps=1e-05, momentum=0.1, affine=True, track_running_stats=True)
    (relu2): ReLU(inplace)
    (conv2): Conv2d(192, 48, kernel_size=(3, 3), stride=(1, 1), padding=(1, 1), bias=False)
  )
  (denselayer16): _DenseLayer(
    (norm1): BatchNorm2d(1104, eps=1e-05, momentum=0.1, affine=True, track_running_stats=True)
    (relu1): ReLU(inplace)
    (conv1): Conv2d(1104, 192, kernel_size=(1, 1), stride=(1, 1), bias=False)
    (norm2): BatchNorm2d(192, eps=1e-05, momentum=0.1, affine=True, track_running_stats=True)
    (relu2): ReLU(inplace)
    (conv2): Conv2d(192, 48, kernel_size=(3, 3), stride=(1, 1), padding=(1, 1), bias=False)
  )
  (denselayer17): _DenseLayer(
    (norm1): BatchNorm2d(1152, eps=1e-05, momentum=0.1, affine=True, track_running_stats=True)
    (relu1): ReLU(inplace)
    (conv1): Conv2d(1152, 192, kernel_size=(1, 1), stride=(1, 1), bias=False)
    (norm2): BatchNorm2d(192, eps=1e-05, momentum=0.1, affine=True, track_running_stats=True)
    (relu2): ReLU(inplace)
    (conv2): Conv2d(192, 48, kernel_size=(3, 3), stride=(1, 1), padding=(1, 1), bias=False)
  )
  (denselayer18): _DenseLayer(
    (norm1): BatchNorm2d(1200, eps=1e-05, momentum=0.1, affine=True, track_running_stats=True)
    (relu1): ReLU(inplace)
    (conv1): Conv2d(1200, 192, kernel_size=(1, 1), stride=(1, 1), bias=False)
    (norm2): BatchNorm2d(192, eps=1e-05, momentum=0.1, affine=True, track_running_stats=True)
    (relu2): ReLU(inplace)
    (conv2): Conv2d(192, 48, kernel_size=(3, 3), stride=(1, 1), padding=(1, 1), bias=False)
  )
  (denselayer19): _DenseLayer(
    (norm1): BatchNorm2d(1248, eps=1e-05, momentum=0.1, affine=True, track_running_stats=True)
    (relu1): ReLU(inplace)
    (conv1): Conv2d(1248, 192, kernel_size=(1, 1), stride=(1, 1), bias=False)
    (norm2): BatchNorm2d(192, eps=1e-05, momentum=0.1, affine=True, track_running_stats=True)
    (relu2): ReLU(inplace)
    (conv2): Conv2d(192, 48, kernel_size=(3, 3), stride=(1, 1), padding=(1, 1), bias=False)
  )
  (denselayer20): _DenseLayer(
    (norm1): BatchNorm2d(1296, eps=1e-05, momentum=0.1, affine=True, track_running_stats=True)
    (relu1): ReLU(inplace)
    (conv1): Conv2d(1296, 192, kernel_size=(1, 1), stride=(1, 1), bias=False)
    (norm2): BatchNorm2d(192, eps=1e-05, momentum=0.1, affine=True, track_running_stats=True)
    (relu2): ReLU(inplace)
    (conv2): Conv2d(192, 48, kernel_size=(3, 3), stride=(1, 1), padding=(1, 1), bias=False)
  )
  (denselayer21): _DenseLayer(
    (norm1): BatchNorm2d(1344, eps=1e-05, momentum=0.1, affine=True, track_running_stats=True)
    (relu1): ReLU(inplace)
    (conv1): Conv2d(1344, 192, kernel_size=(1, 1), stride=(1, 1), bias=False)
    (norm2): BatchNorm2d(192, eps=1e-05, momentum=0.1, affine=True, track_running_stats=True)
    (relu2): ReLU(inplace)
    (conv2): Conv2d(192, 48, kernel_size=(3, 3), stride=(1, 1), padding=(1, 1), bias=False)
  )
  (denselayer22): _DenseLayer(
    (norm1): BatchNorm2d(1392, eps=1e-05, momentum=0.1, affine=True, track_running_stats=True)
    (relu1): ReLU(inplace)
    (conv1): Conv2d(1392, 192, kernel_size=(1, 1), stride=(1, 1), bias=False)
    (norm2): BatchNorm2d(192, eps=1e-05, momentum=0.1, affine=True, track_running_stats=True)
    (relu2): ReLU(inplace)
    (conv2): Conv2d(192, 48, kernel_size=(3, 3), stride=(1, 1), padding=(1, 1), bias=False)
  )
  (denselayer23): _DenseLayer(
    (norm1): BatchNorm2d(1440, eps=1e-05, momentum=0.1, affine=True, track_running_stats=True)
    (relu1): ReLU(inplace)
    (conv1): Conv2d(1440, 192, kernel_size=(1, 1), stride=(1, 1), bias=False)
    (norm2): BatchNorm2d(192, eps=1e-05, momentum=0.1, affine=True, track_running_stats=True)
    (relu2): ReLU(inplace)
    (conv2): Conv2d(192, 48, kernel_size=(3, 3), stride=(1, 1), padding=(1, 1), bias=False)
  )
  (denselayer24): _DenseLayer(
    (norm1): BatchNorm2d(1488, eps=1e-05, momentum=0.1, affine=True, track_running_stats=True)
    (relu1): ReLU(inplace)
    (conv1): Conv2d(1488, 192, kernel_size=(1, 1), stride=(1, 1), bias=False)
    (norm2): BatchNorm2d(192, eps=1e-05, momentum=0.1, affine=True, track_running_stats=True)
    (relu2): ReLU(inplace)
    (conv2): Conv2d(192, 48, kernel_size=(3, 3), stride=(1, 1), padding=(1, 1), bias=False)
  )
  (denselayer25): _DenseLayer(
    (norm1): BatchNorm2d(1536, eps=1e-05, momentum=0.1, affine=True, track_running_stats=True)
    (relu1): ReLU(inplace)
    (conv1): Conv2d(1536, 192, kernel_size=(1, 1), stride=(1, 1), bias=False)
    (norm2): BatchNorm2d(192, eps=1e-05, momentum=0.1, affine=True, track_running_stats=True)
    (relu2): ReLU(inplace)
    (conv2): Conv2d(192, 48, kernel_size=(3, 3), stride=(1, 1), padding=(1, 1), bias=False)
  )
  (denselayer26): _DenseLayer(
    (norm1): BatchNorm2d(1584, eps=1e-05, momentum=0.1, affine=True, track_running_stats=True)
    (relu1): ReLU(inplace)
    (conv1): Conv2d(1584, 192, kernel_size=(1, 1), stride=(1, 1), bias=False)
    (norm2): BatchNorm2d(192, eps=1e-05, momentum=0.1, affine=True, track_running_stats=True)
    (relu2): ReLU(inplace)
    (conv2): Conv2d(192, 48, kernel_size=(3, 3), stride=(1, 1), padding=(1, 1), bias=False)
  )
  (denselayer27): _DenseLayer(
    (norm1): BatchNorm2d(1632, eps=1e-05, momentum=0.1, affine=True, track_running_stats=True)
    (relu1): ReLU(inplace)
    (conv1): Conv2d(1632, 192, kernel_size=(1, 1), stride=(1, 1), bias=False)
    (norm2): BatchNorm2d(192, eps=1e-05, momentum=0.1, affine=True, track_running_stats=True)
    (relu2): ReLU(inplace)
    (conv2): Conv2d(192, 48, kernel_size=(3, 3), stride=(1, 1), padding=(1, 1), bias=False)
  )
  (denselayer28): _DenseLayer(
    (norm1): BatchNorm2d(1680, eps=1e-05, momentum=0.1, affine=True, track_running_stats=True)
    (relu1): ReLU(inplace)
    (conv1): Conv2d(1680, 192, kernel_size=(1, 1), stride=(1, 1), bias=False)
    (norm2): BatchNorm2d(192, eps=1e-05, momentum=0.1, affine=True, track_running_stats=True)
    (relu2): ReLU(inplace)
    (conv2): Conv2d(192, 48, kernel_size=(3, 3), stride=(1, 1), padding=(1, 1), bias=False)
  )
  (denselayer29): _DenseLayer(
    (norm1): BatchNorm2d(1728, eps=1e-05, momentum=0.1, affine=True, track_running_stats=True)
    (relu1): ReLU(inplace)
    (conv1): Conv2d(1728, 192, kernel_size=(1, 1), stride=(1, 1), bias=False)
    (norm2): BatchNorm2d(192, eps=1e-05, momentum=0.1, affine=True, track_running_stats=True)
    (relu2): ReLU(inplace)
    (conv2): Conv2d(192, 48, kernel_size=(3, 3), stride=(1, 1), padding=(1, 1), bias=False)
  )
  (denselayer30): _DenseLayer(
    (norm1): BatchNorm2d(1776, eps=1e-05, momentum=0.1, affine=True, track_running_stats=True)
    (relu1): ReLU(inplace)
    (conv1): Conv2d(1776, 192, kernel_size=(1, 1), stride=(1, 1), bias=False)
    (norm2): BatchNorm2d(192, eps=1e-05, momentum=0.1, affine=True, track_running_stats=True)
    (relu2): ReLU(inplace)
    (conv2): Conv2d(192, 48, kernel_size=(3, 3), stride=(1, 1), padding=(1, 1), bias=False)
  )
  (denselayer31): _DenseLayer(
    (norm1): BatchNorm2d(1824, eps=1e-05, momentum=0.1, affine=True, track_running_stats=True)
    (relu1): ReLU(inplace)
    (conv1): Conv2d(1824, 192, kernel_size=(1, 1), stride=(1, 1), bias=False)
    (norm2): BatchNorm2d(192, eps=1e-05, momentum=0.1, affine=True, track_running_stats=True)
    (relu2): ReLU(inplace)
    (conv2): Conv2d(192, 48, kernel_size=(3, 3), stride=(1, 1), padding=(1, 1), bias=False)
  )
  (denselayer32): _DenseLayer(
    (norm1): BatchNorm2d(1872, eps=1e-05, momentum=0.1, affine=True, track_running_stats=True)
    (relu1): ReLU(inplace)
    (conv1): Conv2d(1872, 192, kernel_size=(1, 1), stride=(1, 1), bias=False)
    (norm2): BatchNorm2d(192, eps=1e-05, momentum=0.1, affine=True, track_running_stats=True)
    (relu2): ReLU(inplace)
    (conv2): Conv2d(192, 48, kernel_size=(3, 3), stride=(1, 1), padding=(1, 1), bias=False)
  )
  (denselayer33): _DenseLayer(
    (norm1): BatchNorm2d(1920, eps=1e-05, momentum=0.1, affine=True, track_running_stats=True)
    (relu1): ReLU(inplace)
    (conv1): Conv2d(1920, 192, kernel_size=(1, 1), stride=(1, 1), bias=False)
    (norm2): BatchNorm2d(192, eps=1e-05, momentum=0.1, affine=True, track_running_stats=True)
    (relu2): ReLU(inplace)
    (conv2): Conv2d(192, 48, kernel_size=(3, 3), stride=(1, 1), padding=(1, 1), bias=False)
  )
  (denselayer34): _DenseLayer(
    (norm1): BatchNorm2d(1968, eps=1e-05, momentum=0.1, affine=True, track_running_stats=True)
    (relu1): ReLU(inplace)
    (conv1): Conv2d(1968, 192, kernel_size=(1, 1), stride=(1, 1), bias=False)
    (norm2): BatchNorm2d(192, eps=1e-05, momentum=0.1, affine=True, track_running_stats=True)
    (relu2): ReLU(inplace)
    (conv2): Conv2d(192, 48, kernel_size=(3, 3), stride=(1, 1), padding=(1, 1), bias=False)
  )
  (denselayer35): _DenseLayer(
    (norm1): BatchNorm2d(2016, eps=1e-05, momentum=0.1, affine=True, track_running_stats=True)
    (relu1): ReLU(inplace)
    (conv1): Conv2d(2016, 192, kernel_size=(1, 1), stride=(1, 1), bias=False)
    (norm2): BatchNorm2d(192, eps=1e-05, momentum=0.1, affine=True, track_running_stats=True)
    (relu2): ReLU(inplace)
    (conv2): Conv2d(192, 48, kernel_size=(3, 3), stride=(1, 1), padding=(1, 1), bias=False)
  )
  (denselayer36): _DenseLayer(
    (norm1): BatchNorm2d(2064, eps=1e-05, momentum=0.1, affine=True, track_running_stats=True)
    (relu1): ReLU(inplace)
    (conv1): Conv2d(2064, 192, kernel_size=(1, 1), stride=(1, 1), bias=False)
    (norm2): BatchNorm2d(192, eps=1e-05, momentum=0.1, affine=True, track_running_stats=True)
    (relu2): ReLU(inplace)
    (conv2): Conv2d(192, 48, kernel_size=(3, 3), stride=(1, 1), padding=(1, 1), bias=False)
  )
)
_DenseLayer(
  (norm1): BatchNorm2d(384, eps=1e-05, momentum=0.1, affine=True, track_running_stats=True)
  (relu1): ReLU(inplace)
  (conv1): Conv2d(384, 192, kernel_size=(1, 1), stride=(1, 1), bias=False)
  (norm2): BatchNorm2d(192, eps=1e-05, momentum=0.1, affine=True, track_running_stats=True)
  (relu2): ReLU(inplace)
  (conv2): Conv2d(192, 48, kernel_size=(3, 3), stride=(1, 1), padding=(1, 1), bias=False)
)
BatchNorm2d(384, eps=1e-05, momentum=0.1, affine=True, track_running_stats=True)
ReLU(inplace)
Conv2d(384, 192, kernel_size=(1, 1), stride=(1, 1), bias=False)
BatchNorm2d(192, eps=1e-05, momentum=0.1, affine=True, track_running_stats=True)
ReLU(inplace)
Conv2d(192, 48, kernel_size=(3, 3), stride=(1, 1), padding=(1, 1), bias=False)
_DenseLayer(
  (norm1): BatchNorm2d(432, eps=1e-05, momentum=0.1, affine=True, track_running_stats=True)
  (relu1): ReLU(inplace)
  (conv1): Conv2d(432, 192, kernel_size=(1, 1), stride=(1, 1), bias=False)
  (norm2): BatchNorm2d(192, eps=1e-05, momentum=0.1, affine=True, track_running_stats=True)
  (relu2): ReLU(inplace)
  (conv2): Conv2d(192, 48, kernel_size=(3, 3), stride=(1, 1), padding=(1, 1), bias=False)
)
BatchNorm2d(432, eps=1e-05, momentum=0.1, affine=True, track_running_stats=True)
ReLU(inplace)
Conv2d(432, 192, kernel_size=(1, 1), stride=(1, 1), bias=False)
BatchNorm2d(192, eps=1e-05, momentum=0.1, affine=True, track_running_stats=True)
ReLU(inplace)
Conv2d(192, 48, kernel_size=(3, 3), stride=(1, 1), padding=(1, 1), bias=False)
_DenseLayer(
  (norm1): BatchNorm2d(480, eps=1e-05, momentum=0.1, affine=True, track_running_stats=True)
  (relu1): ReLU(inplace)
  (conv1): Conv2d(480, 192, kernel_size=(1, 1), stride=(1, 1), bias=False)
  (norm2): BatchNorm2d(192, eps=1e-05, momentum=0.1, affine=True, track_running_stats=True)
  (relu2): ReLU(inplace)
  (conv2): Conv2d(192, 48, kernel_size=(3, 3), stride=(1, 1), padding=(1, 1), bias=False)
)
BatchNorm2d(480, eps=1e-05, momentum=0.1, affine=True, track_running_stats=True)
ReLU(inplace)
Conv2d(480, 192, kernel_size=(1, 1), stride=(1, 1), bias=False)
BatchNorm2d(192, eps=1e-05, momentum=0.1, affine=True, track_running_stats=True)
ReLU(inplace)
Conv2d(192, 48, kernel_size=(3, 3), stride=(1, 1), padding=(1, 1), bias=False)
_DenseLayer(
  (norm1): BatchNorm2d(528, eps=1e-05, momentum=0.1, affine=True, track_running_stats=True)
  (relu1): ReLU(inplace)
  (conv1): Conv2d(528, 192, kernel_size=(1, 1), stride=(1, 1), bias=False)
  (norm2): BatchNorm2d(192, eps=1e-05, momentum=0.1, affine=True, track_running_stats=True)
  (relu2): ReLU(inplace)
  (conv2): Conv2d(192, 48, kernel_size=(3, 3), stride=(1, 1), padding=(1, 1), bias=False)
)
BatchNorm2d(528, eps=1e-05, momentum=0.1, affine=True, track_running_stats=True)
ReLU(inplace)
Conv2d(528, 192, kernel_size=(1, 1), stride=(1, 1), bias=False)
BatchNorm2d(192, eps=1e-05, momentum=0.1, affine=True, track_running_stats=True)
ReLU(inplace)
Conv2d(192, 48, kernel_size=(3, 3), stride=(1, 1), padding=(1, 1), bias=False)
_DenseLayer(
  (norm1): BatchNorm2d(576, eps=1e-05, momentum=0.1, affine=True, track_running_stats=True)
  (relu1): ReLU(inplace)
  (conv1): Conv2d(576, 192, kernel_size=(1, 1), stride=(1, 1), bias=False)
  (norm2): BatchNorm2d(192, eps=1e-05, momentum=0.1, affine=True, track_running_stats=True)
  (relu2): ReLU(inplace)
  (conv2): Conv2d(192, 48, kernel_size=(3, 3), stride=(1, 1), padding=(1, 1), bias=False)
)
BatchNorm2d(576, eps=1e-05, momentum=0.1, affine=True, track_running_stats=True)
ReLU(inplace)
Conv2d(576, 192, kernel_size=(1, 1), stride=(1, 1), bias=False)
BatchNorm2d(192, eps=1e-05, momentum=0.1, affine=True, track_running_stats=True)
ReLU(inplace)
Conv2d(192, 48, kernel_size=(3, 3), stride=(1, 1), padding=(1, 1), bias=False)
_DenseLayer(
  (norm1): BatchNorm2d(624, eps=1e-05, momentum=0.1, affine=True, track_running_stats=True)
  (relu1): ReLU(inplace)
  (conv1): Conv2d(624, 192, kernel_size=(1, 1), stride=(1, 1), bias=False)
  (norm2): BatchNorm2d(192, eps=1e-05, momentum=0.1, affine=True, track_running_stats=True)
  (relu2): ReLU(inplace)
  (conv2): Conv2d(192, 48, kernel_size=(3, 3), stride=(1, 1), padding=(1, 1), bias=False)
)
BatchNorm2d(624, eps=1e-05, momentum=0.1, affine=True, track_running_stats=True)
ReLU(inplace)
Conv2d(624, 192, kernel_size=(1, 1), stride=(1, 1), bias=False)
BatchNorm2d(192, eps=1e-05, momentum=0.1, affine=True, track_running_stats=True)
ReLU(inplace)
Conv2d(192, 48, kernel_size=(3, 3), stride=(1, 1), padding=(1, 1), bias=False)
_DenseLayer(
  (norm1): BatchNorm2d(672, eps=1e-05, momentum=0.1, affine=True, track_running_stats=True)
  (relu1): ReLU(inplace)
  (conv1): Conv2d(672, 192, kernel_size=(1, 1), stride=(1, 1), bias=False)
  (norm2): BatchNorm2d(192, eps=1e-05, momentum=0.1, affine=True, track_running_stats=True)
  (relu2): ReLU(inplace)
  (conv2): Conv2d(192, 48, kernel_size=(3, 3), stride=(1, 1), padding=(1, 1), bias=False)
)
BatchNorm2d(672, eps=1e-05, momentum=0.1, affine=True, track_running_stats=True)
ReLU(inplace)
Conv2d(672, 192, kernel_size=(1, 1), stride=(1, 1), bias=False)
BatchNorm2d(192, eps=1e-05, momentum=0.1, affine=True, track_running_stats=True)
ReLU(inplace)
Conv2d(192, 48, kernel_size=(3, 3), stride=(1, 1), padding=(1, 1), bias=False)
_DenseLayer(
  (norm1): BatchNorm2d(720, eps=1e-05, momentum=0.1, affine=True, track_running_stats=True)
  (relu1): ReLU(inplace)
  (conv1): Conv2d(720, 192, kernel_size=(1, 1), stride=(1, 1), bias=False)
  (norm2): BatchNorm2d(192, eps=1e-05, momentum=0.1, affine=True, track_running_stats=True)
  (relu2): ReLU(inplace)
  (conv2): Conv2d(192, 48, kernel_size=(3, 3), stride=(1, 1), padding=(1, 1), bias=False)
)
BatchNorm2d(720, eps=1e-05, momentum=0.1, affine=True, track_running_stats=True)
ReLU(inplace)
Conv2d(720, 192, kernel_size=(1, 1), stride=(1, 1), bias=False)
BatchNorm2d(192, eps=1e-05, momentum=0.1, affine=True, track_running_stats=True)
ReLU(inplace)
Conv2d(192, 48, kernel_size=(3, 3), stride=(1, 1), padding=(1, 1), bias=False)
_DenseLayer(
  (norm1): BatchNorm2d(768, eps=1e-05, momentum=0.1, affine=True, track_running_stats=True)
  (relu1): ReLU(inplace)
  (conv1): Conv2d(768, 192, kernel_size=(1, 1), stride=(1, 1), bias=False)
  (norm2): BatchNorm2d(192, eps=1e-05, momentum=0.1, affine=True, track_running_stats=True)
  (relu2): ReLU(inplace)
  (conv2): Conv2d(192, 48, kernel_size=(3, 3), stride=(1, 1), padding=(1, 1), bias=False)
)
BatchNorm2d(768, eps=1e-05, momentum=0.1, affine=True, track_running_stats=True)
ReLU(inplace)
Conv2d(768, 192, kernel_size=(1, 1), stride=(1, 1), bias=False)
BatchNorm2d(192, eps=1e-05, momentum=0.1, affine=True, track_running_stats=True)
ReLU(inplace)
Conv2d(192, 48, kernel_size=(3, 3), stride=(1, 1), padding=(1, 1), bias=False)
_DenseLayer(
  (norm1): BatchNorm2d(816, eps=1e-05, momentum=0.1, affine=True, track_running_stats=True)
  (relu1): ReLU(inplace)
  (conv1): Conv2d(816, 192, kernel_size=(1, 1), stride=(1, 1), bias=False)
  (norm2): BatchNorm2d(192, eps=1e-05, momentum=0.1, affine=True, track_running_stats=True)
  (relu2): ReLU(inplace)
  (conv2): Conv2d(192, 48, kernel_size=(3, 3), stride=(1, 1), padding=(1, 1), bias=False)
)
BatchNorm2d(816, eps=1e-05, momentum=0.1, affine=True, track_running_stats=True)
ReLU(inplace)
Conv2d(816, 192, kernel_size=(1, 1), stride=(1, 1), bias=False)
BatchNorm2d(192, eps=1e-05, momentum=0.1, affine=True, track_running_stats=True)
ReLU(inplace)
Conv2d(192, 48, kernel_size=(3, 3), stride=(1, 1), padding=(1, 1), bias=False)
_DenseLayer(
  (norm1): BatchNorm2d(864, eps=1e-05, momentum=0.1, affine=True, track_running_stats=True)
  (relu1): ReLU(inplace)
  (conv1): Conv2d(864, 192, kernel_size=(1, 1), stride=(1, 1), bias=False)
  (norm2): BatchNorm2d(192, eps=1e-05, momentum=0.1, affine=True, track_running_stats=True)
  (relu2): ReLU(inplace)
  (conv2): Conv2d(192, 48, kernel_size=(3, 3), stride=(1, 1), padding=(1, 1), bias=False)
)
BatchNorm2d(864, eps=1e-05, momentum=0.1, affine=True, track_running_stats=True)
ReLU(inplace)
Conv2d(864, 192, kernel_size=(1, 1), stride=(1, 1), bias=False)
BatchNorm2d(192, eps=1e-05, momentum=0.1, affine=True, track_running_stats=True)
ReLU(inplace)
Conv2d(192, 48, kernel_size=(3, 3), stride=(1, 1), padding=(1, 1), bias=False)
_DenseLayer(
  (norm1): BatchNorm2d(912, eps=1e-05, momentum=0.1, affine=True, track_running_stats=True)
  (relu1): ReLU(inplace)
  (conv1): Conv2d(912, 192, kernel_size=(1, 1), stride=(1, 1), bias=False)
  (norm2): BatchNorm2d(192, eps=1e-05, momentum=0.1, affine=True, track_running_stats=True)
  (relu2): ReLU(inplace)
  (conv2): Conv2d(192, 48, kernel_size=(3, 3), stride=(1, 1), padding=(1, 1), bias=False)
)
BatchNorm2d(912, eps=1e-05, momentum=0.1, affine=True, track_running_stats=True)
ReLU(inplace)
Conv2d(912, 192, kernel_size=(1, 1), stride=(1, 1), bias=False)
BatchNorm2d(192, eps=1e-05, momentum=0.1, affine=True, track_running_stats=True)
ReLU(inplace)
Conv2d(192, 48, kernel_size=(3, 3), stride=(1, 1), padding=(1, 1), bias=False)
_DenseLayer(
  (norm1): BatchNorm2d(960, eps=1e-05, momentum=0.1, affine=True, track_running_stats=True)
  (relu1): ReLU(inplace)
  (conv1): Conv2d(960, 192, kernel_size=(1, 1), stride=(1, 1), bias=False)
  (norm2): BatchNorm2d(192, eps=1e-05, momentum=0.1, affine=True, track_running_stats=True)
  (relu2): ReLU(inplace)
  (conv2): Conv2d(192, 48, kernel_size=(3, 3), stride=(1, 1), padding=(1, 1), bias=False)
)
BatchNorm2d(960, eps=1e-05, momentum=0.1, affine=True, track_running_stats=True)
ReLU(inplace)
Conv2d(960, 192, kernel_size=(1, 1), stride=(1, 1), bias=False)
BatchNorm2d(192, eps=1e-05, momentum=0.1, affine=True, track_running_stats=True)
ReLU(inplace)
Conv2d(192, 48, kernel_size=(3, 3), stride=(1, 1), padding=(1, 1), bias=False)
_DenseLayer(
  (norm1): BatchNorm2d(1008, eps=1e-05, momentum=0.1, affine=True, track_running_stats=True)
  (relu1): ReLU(inplace)
  (conv1): Conv2d(1008, 192, kernel_size=(1, 1), stride=(1, 1), bias=False)
  (norm2): BatchNorm2d(192, eps=1e-05, momentum=0.1, affine=True, track_running_stats=True)
  (relu2): ReLU(inplace)
  (conv2): Conv2d(192, 48, kernel_size=(3, 3), stride=(1, 1), padding=(1, 1), bias=False)
)
BatchNorm2d(1008, eps=1e-05, momentum=0.1, affine=True, track_running_stats=True)
ReLU(inplace)
Conv2d(1008, 192, kernel_size=(1, 1), stride=(1, 1), bias=False)
BatchNorm2d(192, eps=1e-05, momentum=0.1, affine=True, track_running_stats=True)
ReLU(inplace)
Conv2d(192, 48, kernel_size=(3, 3), stride=(1, 1), padding=(1, 1), bias=False)
_DenseLayer(
  (norm1): BatchNorm2d(1056, eps=1e-05, momentum=0.1, affine=True, track_running_stats=True)
  (relu1): ReLU(inplace)
  (conv1): Conv2d(1056, 192, kernel_size=(1, 1), stride=(1, 1), bias=False)
  (norm2): BatchNorm2d(192, eps=1e-05, momentum=0.1, affine=True, track_running_stats=True)
  (relu2): ReLU(inplace)
  (conv2): Conv2d(192, 48, kernel_size=(3, 3), stride=(1, 1), padding=(1, 1), bias=False)
)
BatchNorm2d(1056, eps=1e-05, momentum=0.1, affine=True, track_running_stats=True)
ReLU(inplace)
Conv2d(1056, 192, kernel_size=(1, 1), stride=(1, 1), bias=False)
BatchNorm2d(192, eps=1e-05, momentum=0.1, affine=True, track_running_stats=True)
ReLU(inplace)
Conv2d(192, 48, kernel_size=(3, 3), stride=(1, 1), padding=(1, 1), bias=False)
_DenseLayer(
  (norm1): BatchNorm2d(1104, eps=1e-05, momentum=0.1, affine=True, track_running_stats=True)
  (relu1): ReLU(inplace)
  (conv1): Conv2d(1104, 192, kernel_size=(1, 1), stride=(1, 1), bias=False)
  (norm2): BatchNorm2d(192, eps=1e-05, momentum=0.1, affine=True, track_running_stats=True)
  (relu2): ReLU(inplace)
  (conv2): Conv2d(192, 48, kernel_size=(3, 3), stride=(1, 1), padding=(1, 1), bias=False)
)
BatchNorm2d(1104, eps=1e-05, momentum=0.1, affine=True, track_running_stats=True)
ReLU(inplace)
Conv2d(1104, 192, kernel_size=(1, 1), stride=(1, 1), bias=False)
BatchNorm2d(192, eps=1e-05, momentum=0.1, affine=True, track_running_stats=True)
ReLU(inplace)
Conv2d(192, 48, kernel_size=(3, 3), stride=(1, 1), padding=(1, 1), bias=False)
_DenseLayer(
  (norm1): BatchNorm2d(1152, eps=1e-05, momentum=0.1, affine=True, track_running_stats=True)
  (relu1): ReLU(inplace)
  (conv1): Conv2d(1152, 192, kernel_size=(1, 1), stride=(1, 1), bias=False)
  (norm2): BatchNorm2d(192, eps=1e-05, momentum=0.1, affine=True, track_running_stats=True)
  (relu2): ReLU(inplace)
  (conv2): Conv2d(192, 48, kernel_size=(3, 3), stride=(1, 1), padding=(1, 1), bias=False)
)
BatchNorm2d(1152, eps=1e-05, momentum=0.1, affine=True, track_running_stats=True)
ReLU(inplace)
Conv2d(1152, 192, kernel_size=(1, 1), stride=(1, 1), bias=False)
BatchNorm2d(192, eps=1e-05, momentum=0.1, affine=True, track_running_stats=True)
ReLU(inplace)
Conv2d(192, 48, kernel_size=(3, 3), stride=(1, 1), padding=(1, 1), bias=False)
_DenseLayer(
  (norm1): BatchNorm2d(1200, eps=1e-05, momentum=0.1, affine=True, track_running_stats=True)
  (relu1): ReLU(inplace)
  (conv1): Conv2d(1200, 192, kernel_size=(1, 1), stride=(1, 1), bias=False)
  (norm2): BatchNorm2d(192, eps=1e-05, momentum=0.1, affine=True, track_running_stats=True)
  (relu2): ReLU(inplace)
  (conv2): Conv2d(192, 48, kernel_size=(3, 3), stride=(1, 1), padding=(1, 1), bias=False)
)
BatchNorm2d(1200, eps=1e-05, momentum=0.1, affine=True, track_running_stats=True)
ReLU(inplace)
Conv2d(1200, 192, kernel_size=(1, 1), stride=(1, 1), bias=False)
BatchNorm2d(192, eps=1e-05, momentum=0.1, affine=True, track_running_stats=True)
ReLU(inplace)
Conv2d(192, 48, kernel_size=(3, 3), stride=(1, 1), padding=(1, 1), bias=False)
_DenseLayer(
  (norm1): BatchNorm2d(1248, eps=1e-05, momentum=0.1, affine=True, track_running_stats=True)
  (relu1): ReLU(inplace)
  (conv1): Conv2d(1248, 192, kernel_size=(1, 1), stride=(1, 1), bias=False)
  (norm2): BatchNorm2d(192, eps=1e-05, momentum=0.1, affine=True, track_running_stats=True)
  (relu2): ReLU(inplace)
  (conv2): Conv2d(192, 48, kernel_size=(3, 3), stride=(1, 1), padding=(1, 1), bias=False)
)
BatchNorm2d(1248, eps=1e-05, momentum=0.1, affine=True, track_running_stats=True)
ReLU(inplace)
Conv2d(1248, 192, kernel_size=(1, 1), stride=(1, 1), bias=False)
BatchNorm2d(192, eps=1e-05, momentum=0.1, affine=True, track_running_stats=True)
ReLU(inplace)
Conv2d(192, 48, kernel_size=(3, 3), stride=(1, 1), padding=(1, 1), bias=False)
_DenseLayer(
  (norm1): BatchNorm2d(1296, eps=1e-05, momentum=0.1, affine=True, track_running_stats=True)
  (relu1): ReLU(inplace)
  (conv1): Conv2d(1296, 192, kernel_size=(1, 1), stride=(1, 1), bias=False)
  (norm2): BatchNorm2d(192, eps=1e-05, momentum=0.1, affine=True, track_running_stats=True)
  (relu2): ReLU(inplace)
  (conv2): Conv2d(192, 48, kernel_size=(3, 3), stride=(1, 1), padding=(1, 1), bias=False)
)
BatchNorm2d(1296, eps=1e-05, momentum=0.1, affine=True, track_running_stats=True)
ReLU(inplace)
Conv2d(1296, 192, kernel_size=(1, 1), stride=(1, 1), bias=False)
BatchNorm2d(192, eps=1e-05, momentum=0.1, affine=True, track_running_stats=True)
ReLU(inplace)
Conv2d(192, 48, kernel_size=(3, 3), stride=(1, 1), padding=(1, 1), bias=False)
_DenseLayer(
  (norm1): BatchNorm2d(1344, eps=1e-05, momentum=0.1, affine=True, track_running_stats=True)
  (relu1): ReLU(inplace)
  (conv1): Conv2d(1344, 192, kernel_size=(1, 1), stride=(1, 1), bias=False)
  (norm2): BatchNorm2d(192, eps=1e-05, momentum=0.1, affine=True, track_running_stats=True)
  (relu2): ReLU(inplace)
  (conv2): Conv2d(192, 48, kernel_size=(3, 3), stride=(1, 1), padding=(1, 1), bias=False)
)
BatchNorm2d(1344, eps=1e-05, momentum=0.1, affine=True, track_running_stats=True)
ReLU(inplace)
Conv2d(1344, 192, kernel_size=(1, 1), stride=(1, 1), bias=False)
BatchNorm2d(192, eps=1e-05, momentum=0.1, affine=True, track_running_stats=True)
ReLU(inplace)
Conv2d(192, 48, kernel_size=(3, 3), stride=(1, 1), padding=(1, 1), bias=False)
_DenseLayer(
  (norm1): BatchNorm2d(1392, eps=1e-05, momentum=0.1, affine=True, track_running_stats=True)
  (relu1): ReLU(inplace)
  (conv1): Conv2d(1392, 192, kernel_size=(1, 1), stride=(1, 1), bias=False)
  (norm2): BatchNorm2d(192, eps=1e-05, momentum=0.1, affine=True, track_running_stats=True)
  (relu2): ReLU(inplace)
  (conv2): Conv2d(192, 48, kernel_size=(3, 3), stride=(1, 1), padding=(1, 1), bias=False)
)
BatchNorm2d(1392, eps=1e-05, momentum=0.1, affine=True, track_running_stats=True)
ReLU(inplace)
Conv2d(1392, 192, kernel_size=(1, 1), stride=(1, 1), bias=False)
BatchNorm2d(192, eps=1e-05, momentum=0.1, affine=True, track_running_stats=True)
ReLU(inplace)
Conv2d(192, 48, kernel_size=(3, 3), stride=(1, 1), padding=(1, 1), bias=False)
_DenseLayer(
  (norm1): BatchNorm2d(1440, eps=1e-05, momentum=0.1, affine=True, track_running_stats=True)
  (relu1): ReLU(inplace)
  (conv1): Conv2d(1440, 192, kernel_size=(1, 1), stride=(1, 1), bias=False)
  (norm2): BatchNorm2d(192, eps=1e-05, momentum=0.1, affine=True, track_running_stats=True)
  (relu2): ReLU(inplace)
  (conv2): Conv2d(192, 48, kernel_size=(3, 3), stride=(1, 1), padding=(1, 1), bias=False)
)
BatchNorm2d(1440, eps=1e-05, momentum=0.1, affine=True, track_running_stats=True)
ReLU(inplace)
Conv2d(1440, 192, kernel_size=(1, 1), stride=(1, 1), bias=False)
BatchNorm2d(192, eps=1e-05, momentum=0.1, affine=True, track_running_stats=True)
ReLU(inplace)
Conv2d(192, 48, kernel_size=(3, 3), stride=(1, 1), padding=(1, 1), bias=False)
_DenseLayer(
  (norm1): BatchNorm2d(1488, eps=1e-05, momentum=0.1, affine=True, track_running_stats=True)
  (relu1): ReLU(inplace)
  (conv1): Conv2d(1488, 192, kernel_size=(1, 1), stride=(1, 1), bias=False)
  (norm2): BatchNorm2d(192, eps=1e-05, momentum=0.1, affine=True, track_running_stats=True)
  (relu2): ReLU(inplace)
  (conv2): Conv2d(192, 48, kernel_size=(3, 3), stride=(1, 1), padding=(1, 1), bias=False)
)
BatchNorm2d(1488, eps=1e-05, momentum=0.1, affine=True, track_running_stats=True)
ReLU(inplace)
Conv2d(1488, 192, kernel_size=(1, 1), stride=(1, 1), bias=False)
BatchNorm2d(192, eps=1e-05, momentum=0.1, affine=True, track_running_stats=True)
ReLU(inplace)
Conv2d(192, 48, kernel_size=(3, 3), stride=(1, 1), padding=(1, 1), bias=False)
_DenseLayer(
  (norm1): BatchNorm2d(1536, eps=1e-05, momentum=0.1, affine=True, track_running_stats=True)
  (relu1): ReLU(inplace)
  (conv1): Conv2d(1536, 192, kernel_size=(1, 1), stride=(1, 1), bias=False)
  (norm2): BatchNorm2d(192, eps=1e-05, momentum=0.1, affine=True, track_running_stats=True)
  (relu2): ReLU(inplace)
  (conv2): Conv2d(192, 48, kernel_size=(3, 3), stride=(1, 1), padding=(1, 1), bias=False)
)
BatchNorm2d(1536, eps=1e-05, momentum=0.1, affine=True, track_running_stats=True)
ReLU(inplace)
Conv2d(1536, 192, kernel_size=(1, 1), stride=(1, 1), bias=False)
BatchNorm2d(192, eps=1e-05, momentum=0.1, affine=True, track_running_stats=True)
ReLU(inplace)
Conv2d(192, 48, kernel_size=(3, 3), stride=(1, 1), padding=(1, 1), bias=False)
_DenseLayer(
  (norm1): BatchNorm2d(1584, eps=1e-05, momentum=0.1, affine=True, track_running_stats=True)
  (relu1): ReLU(inplace)
  (conv1): Conv2d(1584, 192, kernel_size=(1, 1), stride=(1, 1), bias=False)
  (norm2): BatchNorm2d(192, eps=1e-05, momentum=0.1, affine=True, track_running_stats=True)
  (relu2): ReLU(inplace)
  (conv2): Conv2d(192, 48, kernel_size=(3, 3), stride=(1, 1), padding=(1, 1), bias=False)
)
BatchNorm2d(1584, eps=1e-05, momentum=0.1, affine=True, track_running_stats=True)
ReLU(inplace)
Conv2d(1584, 192, kernel_size=(1, 1), stride=(1, 1), bias=False)
BatchNorm2d(192, eps=1e-05, momentum=0.1, affine=True, track_running_stats=True)
ReLU(inplace)
Conv2d(192, 48, kernel_size=(3, 3), stride=(1, 1), padding=(1, 1), bias=False)
_DenseLayer(
  (norm1): BatchNorm2d(1632, eps=1e-05, momentum=0.1, affine=True, track_running_stats=True)
  (relu1): ReLU(inplace)
  (conv1): Conv2d(1632, 192, kernel_size=(1, 1), stride=(1, 1), bias=False)
  (norm2): BatchNorm2d(192, eps=1e-05, momentum=0.1, affine=True, track_running_stats=True)
  (relu2): ReLU(inplace)
  (conv2): Conv2d(192, 48, kernel_size=(3, 3), stride=(1, 1), padding=(1, 1), bias=False)
)
BatchNorm2d(1632, eps=1e-05, momentum=0.1, affine=True, track_running_stats=True)
ReLU(inplace)
Conv2d(1632, 192, kernel_size=(1, 1), stride=(1, 1), bias=False)
BatchNorm2d(192, eps=1e-05, momentum=0.1, affine=True, track_running_stats=True)
ReLU(inplace)
Conv2d(192, 48, kernel_size=(3, 3), stride=(1, 1), padding=(1, 1), bias=False)
_DenseLayer(
  (norm1): BatchNorm2d(1680, eps=1e-05, momentum=0.1, affine=True, track_running_stats=True)
  (relu1): ReLU(inplace)
  (conv1): Conv2d(1680, 192, kernel_size=(1, 1), stride=(1, 1), bias=False)
  (norm2): BatchNorm2d(192, eps=1e-05, momentum=0.1, affine=True, track_running_stats=True)
  (relu2): ReLU(inplace)
  (conv2): Conv2d(192, 48, kernel_size=(3, 3), stride=(1, 1), padding=(1, 1), bias=False)
)
BatchNorm2d(1680, eps=1e-05, momentum=0.1, affine=True, track_running_stats=True)
ReLU(inplace)
Conv2d(1680, 192, kernel_size=(1, 1), stride=(1, 1), bias=False)
BatchNorm2d(192, eps=1e-05, momentum=0.1, affine=True, track_running_stats=True)
ReLU(inplace)
Conv2d(192, 48, kernel_size=(3, 3), stride=(1, 1), padding=(1, 1), bias=False)
_DenseLayer(
  (norm1): BatchNorm2d(1728, eps=1e-05, momentum=0.1, affine=True, track_running_stats=True)
  (relu1): ReLU(inplace)
  (conv1): Conv2d(1728, 192, kernel_size=(1, 1), stride=(1, 1), bias=False)
  (norm2): BatchNorm2d(192, eps=1e-05, momentum=0.1, affine=True, track_running_stats=True)
  (relu2): ReLU(inplace)
  (conv2): Conv2d(192, 48, kernel_size=(3, 3), stride=(1, 1), padding=(1, 1), bias=False)
)
BatchNorm2d(1728, eps=1e-05, momentum=0.1, affine=True, track_running_stats=True)
ReLU(inplace)
Conv2d(1728, 192, kernel_size=(1, 1), stride=(1, 1), bias=False)
BatchNorm2d(192, eps=1e-05, momentum=0.1, affine=True, track_running_stats=True)
ReLU(inplace)
Conv2d(192, 48, kernel_size=(3, 3), stride=(1, 1), padding=(1, 1), bias=False)
_DenseLayer(
  (norm1): BatchNorm2d(1776, eps=1e-05, momentum=0.1, affine=True, track_running_stats=True)
  (relu1): ReLU(inplace)
  (conv1): Conv2d(1776, 192, kernel_size=(1, 1), stride=(1, 1), bias=False)
  (norm2): BatchNorm2d(192, eps=1e-05, momentum=0.1, affine=True, track_running_stats=True)
  (relu2): ReLU(inplace)
  (conv2): Conv2d(192, 48, kernel_size=(3, 3), stride=(1, 1), padding=(1, 1), bias=False)
)
BatchNorm2d(1776, eps=1e-05, momentum=0.1, affine=True, track_running_stats=True)
ReLU(inplace)
Conv2d(1776, 192, kernel_size=(1, 1), stride=(1, 1), bias=False)
BatchNorm2d(192, eps=1e-05, momentum=0.1, affine=True, track_running_stats=True)
ReLU(inplace)
Conv2d(192, 48, kernel_size=(3, 3), stride=(1, 1), padding=(1, 1), bias=False)
_DenseLayer(
  (norm1): BatchNorm2d(1824, eps=1e-05, momentum=0.1, affine=True, track_running_stats=True)
  (relu1): ReLU(inplace)
  (conv1): Conv2d(1824, 192, kernel_size=(1, 1), stride=(1, 1), bias=False)
  (norm2): BatchNorm2d(192, eps=1e-05, momentum=0.1, affine=True, track_running_stats=True)
  (relu2): ReLU(inplace)
  (conv2): Conv2d(192, 48, kernel_size=(3, 3), stride=(1, 1), padding=(1, 1), bias=False)
)
BatchNorm2d(1824, eps=1e-05, momentum=0.1, affine=True, track_running_stats=True)
ReLU(inplace)
Conv2d(1824, 192, kernel_size=(1, 1), stride=(1, 1), bias=False)
BatchNorm2d(192, eps=1e-05, momentum=0.1, affine=True, track_running_stats=True)
ReLU(inplace)
Conv2d(192, 48, kernel_size=(3, 3), stride=(1, 1), padding=(1, 1), bias=False)
_DenseLayer(
  (norm1): BatchNorm2d(1872, eps=1e-05, momentum=0.1, affine=True, track_running_stats=True)
  (relu1): ReLU(inplace)
  (conv1): Conv2d(1872, 192, kernel_size=(1, 1), stride=(1, 1), bias=False)
  (norm2): BatchNorm2d(192, eps=1e-05, momentum=0.1, affine=True, track_running_stats=True)
  (relu2): ReLU(inplace)
  (conv2): Conv2d(192, 48, kernel_size=(3, 3), stride=(1, 1), padding=(1, 1), bias=False)
)
BatchNorm2d(1872, eps=1e-05, momentum=0.1, affine=True, track_running_stats=True)
ReLU(inplace)
Conv2d(1872, 192, kernel_size=(1, 1), stride=(1, 1), bias=False)
BatchNorm2d(192, eps=1e-05, momentum=0.1, affine=True, track_running_stats=True)
ReLU(inplace)
Conv2d(192, 48, kernel_size=(3, 3), stride=(1, 1), padding=(1, 1), bias=False)
_DenseLayer(
  (norm1): BatchNorm2d(1920, eps=1e-05, momentum=0.1, affine=True, track_running_stats=True)
  (relu1): ReLU(inplace)
  (conv1): Conv2d(1920, 192, kernel_size=(1, 1), stride=(1, 1), bias=False)
  (norm2): BatchNorm2d(192, eps=1e-05, momentum=0.1, affine=True, track_running_stats=True)
  (relu2): ReLU(inplace)
  (conv2): Conv2d(192, 48, kernel_size=(3, 3), stride=(1, 1), padding=(1, 1), bias=False)
)
BatchNorm2d(1920, eps=1e-05, momentum=0.1, affine=True, track_running_stats=True)
ReLU(inplace)
Conv2d(1920, 192, kernel_size=(1, 1), stride=(1, 1), bias=False)
BatchNorm2d(192, eps=1e-05, momentum=0.1, affine=True, track_running_stats=True)
ReLU(inplace)
Conv2d(192, 48, kernel_size=(3, 3), stride=(1, 1), padding=(1, 1), bias=False)
_DenseLayer(
  (norm1): BatchNorm2d(1968, eps=1e-05, momentum=0.1, affine=True, track_running_stats=True)
  (relu1): ReLU(inplace)
  (conv1): Conv2d(1968, 192, kernel_size=(1, 1), stride=(1, 1), bias=False)
  (norm2): BatchNorm2d(192, eps=1e-05, momentum=0.1, affine=True, track_running_stats=True)
  (relu2): ReLU(inplace)
  (conv2): Conv2d(192, 48, kernel_size=(3, 3), stride=(1, 1), padding=(1, 1), bias=False)
)
BatchNorm2d(1968, eps=1e-05, momentum=0.1, affine=True, track_running_stats=True)
ReLU(inplace)
Conv2d(1968, 192, kernel_size=(1, 1), stride=(1, 1), bias=False)
BatchNorm2d(192, eps=1e-05, momentum=0.1, affine=True, track_running_stats=True)
ReLU(inplace)
Conv2d(192, 48, kernel_size=(3, 3), stride=(1, 1), padding=(1, 1), bias=False)
_DenseLayer(
  (norm1): BatchNorm2d(2016, eps=1e-05, momentum=0.1, affine=True, track_running_stats=True)
  (relu1): ReLU(inplace)
  (conv1): Conv2d(2016, 192, kernel_size=(1, 1), stride=(1, 1), bias=False)
  (norm2): BatchNorm2d(192, eps=1e-05, momentum=0.1, affine=True, track_running_stats=True)
  (relu2): ReLU(inplace)
  (conv2): Conv2d(192, 48, kernel_size=(3, 3), stride=(1, 1), padding=(1, 1), bias=False)
)
BatchNorm2d(2016, eps=1e-05, momentum=0.1, affine=True, track_running_stats=True)
ReLU(inplace)
Conv2d(2016, 192, kernel_size=(1, 1), stride=(1, 1), bias=False)
BatchNorm2d(192, eps=1e-05, momentum=0.1, affine=True, track_running_stats=True)
ReLU(inplace)
Conv2d(192, 48, kernel_size=(3, 3), stride=(1, 1), padding=(1, 1), bias=False)
_DenseLayer(
  (norm1): BatchNorm2d(2064, eps=1e-05, momentum=0.1, affine=True, track_running_stats=True)
  (relu1): ReLU(inplace)
  (conv1): Conv2d(2064, 192, kernel_size=(1, 1), stride=(1, 1), bias=False)
  (norm2): BatchNorm2d(192, eps=1e-05, momentum=0.1, affine=True, track_running_stats=True)
  (relu2): ReLU(inplace)
  (conv2): Conv2d(192, 48, kernel_size=(3, 3), stride=(1, 1), padding=(1, 1), bias=False)
)
BatchNorm2d(2064, eps=1e-05, momentum=0.1, affine=True, track_running_stats=True)
ReLU(inplace)
Conv2d(2064, 192, kernel_size=(1, 1), stride=(1, 1), bias=False)
BatchNorm2d(192, eps=1e-05, momentum=0.1, affine=True, track_running_stats=True)
ReLU(inplace)
Conv2d(192, 48, kernel_size=(3, 3), stride=(1, 1), padding=(1, 1), bias=False)
_Transition(
  (norm): BatchNorm2d(2112, eps=1e-05, momentum=0.1, affine=True, track_running_stats=True)
  (relu): ReLU(inplace)
  (conv): Conv2d(2112, 1056, kernel_size=(1, 1), stride=(1, 1), bias=False)
  (pool): AvgPool2d(kernel_size=2, stride=2, padding=0)
)
BatchNorm2d(2112, eps=1e-05, momentum=0.1, affine=True, track_running_stats=True)
ReLU(inplace)
Conv2d(2112, 1056, kernel_size=(1, 1), stride=(1, 1), bias=False)
AvgPool2d(kernel_size=2, stride=2, padding=0)
_DenseBlock(
  (denselayer1): _DenseLayer(
    (norm1): BatchNorm2d(1056, eps=1e-05, momentum=0.1, affine=True, track_running_stats=True)
    (relu1): ReLU(inplace)
    (conv1): Conv2d(1056, 192, kernel_size=(1, 1), stride=(1, 1), bias=False)
    (norm2): BatchNorm2d(192, eps=1e-05, momentum=0.1, affine=True, track_running_stats=True)
    (relu2): ReLU(inplace)
    (conv2): Conv2d(192, 48, kernel_size=(3, 3), stride=(1, 1), padding=(1, 1), bias=False)
  )
  (denselayer2): _DenseLayer(
    (norm1): BatchNorm2d(1104, eps=1e-05, momentum=0.1, affine=True, track_running_stats=True)
    (relu1): ReLU(inplace)
    (conv1): Conv2d(1104, 192, kernel_size=(1, 1), stride=(1, 1), bias=False)
    (norm2): BatchNorm2d(192, eps=1e-05, momentum=0.1, affine=True, track_running_stats=True)
    (relu2): ReLU(inplace)
    (conv2): Conv2d(192, 48, kernel_size=(3, 3), stride=(1, 1), padding=(1, 1), bias=False)
  )
  (denselayer3): _DenseLayer(
    (norm1): BatchNorm2d(1152, eps=1e-05, momentum=0.1, affine=True, track_running_stats=True)
    (relu1): ReLU(inplace)
    (conv1): Conv2d(1152, 192, kernel_size=(1, 1), stride=(1, 1), bias=False)
    (norm2): BatchNorm2d(192, eps=1e-05, momentum=0.1, affine=True, track_running_stats=True)
    (relu2): ReLU(inplace)
    (conv2): Conv2d(192, 48, kernel_size=(3, 3), stride=(1, 1), padding=(1, 1), bias=False)
  )
  (denselayer4): _DenseLayer(
    (norm1): BatchNorm2d(1200, eps=1e-05, momentum=0.1, affine=True, track_running_stats=True)
    (relu1): ReLU(inplace)
    (conv1): Conv2d(1200, 192, kernel_size=(1, 1), stride=(1, 1), bias=False)
    (norm2): BatchNorm2d(192, eps=1e-05, momentum=0.1, affine=True, track_running_stats=True)
    (relu2): ReLU(inplace)
    (conv2): Conv2d(192, 48, kernel_size=(3, 3), stride=(1, 1), padding=(1, 1), bias=False)
  )
  (denselayer5): _DenseLayer(
    (norm1): BatchNorm2d(1248, eps=1e-05, momentum=0.1, affine=True, track_running_stats=True)
    (relu1): ReLU(inplace)
    (conv1): Conv2d(1248, 192, kernel_size=(1, 1), stride=(1, 1), bias=False)
    (norm2): BatchNorm2d(192, eps=1e-05, momentum=0.1, affine=True, track_running_stats=True)
    (relu2): ReLU(inplace)
    (conv2): Conv2d(192, 48, kernel_size=(3, 3), stride=(1, 1), padding=(1, 1), bias=False)
  )
  (denselayer6): _DenseLayer(
    (norm1): BatchNorm2d(1296, eps=1e-05, momentum=0.1, affine=True, track_running_stats=True)
    (relu1): ReLU(inplace)
    (conv1): Conv2d(1296, 192, kernel_size=(1, 1), stride=(1, 1), bias=False)
    (norm2): BatchNorm2d(192, eps=1e-05, momentum=0.1, affine=True, track_running_stats=True)
    (relu2): ReLU(inplace)
    (conv2): Conv2d(192, 48, kernel_size=(3, 3), stride=(1, 1), padding=(1, 1), bias=False)
  )
  (denselayer7): _DenseLayer(
    (norm1): BatchNorm2d(1344, eps=1e-05, momentum=0.1, affine=True, track_running_stats=True)
    (relu1): ReLU(inplace)
    (conv1): Conv2d(1344, 192, kernel_size=(1, 1), stride=(1, 1), bias=False)
    (norm2): BatchNorm2d(192, eps=1e-05, momentum=0.1, affine=True, track_running_stats=True)
    (relu2): ReLU(inplace)
    (conv2): Conv2d(192, 48, kernel_size=(3, 3), stride=(1, 1), padding=(1, 1), bias=False)
  )
  (denselayer8): _DenseLayer(
    (norm1): BatchNorm2d(1392, eps=1e-05, momentum=0.1, affine=True, track_running_stats=True)
    (relu1): ReLU(inplace)
    (conv1): Conv2d(1392, 192, kernel_size=(1, 1), stride=(1, 1), bias=False)
    (norm2): BatchNorm2d(192, eps=1e-05, momentum=0.1, affine=True, track_running_stats=True)
    (relu2): ReLU(inplace)
    (conv2): Conv2d(192, 48, kernel_size=(3, 3), stride=(1, 1), padding=(1, 1), bias=False)
  )
  (denselayer9): _DenseLayer(
    (norm1): BatchNorm2d(1440, eps=1e-05, momentum=0.1, affine=True, track_running_stats=True)
    (relu1): ReLU(inplace)
    (conv1): Conv2d(1440, 192, kernel_size=(1, 1), stride=(1, 1), bias=False)
    (norm2): BatchNorm2d(192, eps=1e-05, momentum=0.1, affine=True, track_running_stats=True)
    (relu2): ReLU(inplace)
    (conv2): Conv2d(192, 48, kernel_size=(3, 3), stride=(1, 1), padding=(1, 1), bias=False)
  )
  (denselayer10): _DenseLayer(
    (norm1): BatchNorm2d(1488, eps=1e-05, momentum=0.1, affine=True, track_running_stats=True)
    (relu1): ReLU(inplace)
    (conv1): Conv2d(1488, 192, kernel_size=(1, 1), stride=(1, 1), bias=False)
    (norm2): BatchNorm2d(192, eps=1e-05, momentum=0.1, affine=True, track_running_stats=True)
    (relu2): ReLU(inplace)
    (conv2): Conv2d(192, 48, kernel_size=(3, 3), stride=(1, 1), padding=(1, 1), bias=False)
  )
  (denselayer11): _DenseLayer(
    (norm1): BatchNorm2d(1536, eps=1e-05, momentum=0.1, affine=True, track_running_stats=True)
    (relu1): ReLU(inplace)
    (conv1): Conv2d(1536, 192, kernel_size=(1, 1), stride=(1, 1), bias=False)
    (norm2): BatchNorm2d(192, eps=1e-05, momentum=0.1, affine=True, track_running_stats=True)
    (relu2): ReLU(inplace)
    (conv2): Conv2d(192, 48, kernel_size=(3, 3), stride=(1, 1), padding=(1, 1), bias=False)
  )
  (denselayer12): _DenseLayer(
    (norm1): BatchNorm2d(1584, eps=1e-05, momentum=0.1, affine=True, track_running_stats=True)
    (relu1): ReLU(inplace)
    (conv1): Conv2d(1584, 192, kernel_size=(1, 1), stride=(1, 1), bias=False)
    (norm2): BatchNorm2d(192, eps=1e-05, momentum=0.1, affine=True, track_running_stats=True)
    (relu2): ReLU(inplace)
    (conv2): Conv2d(192, 48, kernel_size=(3, 3), stride=(1, 1), padding=(1, 1), bias=False)
  )
  (denselayer13): _DenseLayer(
    (norm1): BatchNorm2d(1632, eps=1e-05, momentum=0.1, affine=True, track_running_stats=True)
    (relu1): ReLU(inplace)
    (conv1): Conv2d(1632, 192, kernel_size=(1, 1), stride=(1, 1), bias=False)
    (norm2): BatchNorm2d(192, eps=1e-05, momentum=0.1, affine=True, track_running_stats=True)
    (relu2): ReLU(inplace)
    (conv2): Conv2d(192, 48, kernel_size=(3, 3), stride=(1, 1), padding=(1, 1), bias=False)
  )
  (denselayer14): _DenseLayer(
    (norm1): BatchNorm2d(1680, eps=1e-05, momentum=0.1, affine=True, track_running_stats=True)
    (relu1): ReLU(inplace)
    (conv1): Conv2d(1680, 192, kernel_size=(1, 1), stride=(1, 1), bias=False)
    (norm2): BatchNorm2d(192, eps=1e-05, momentum=0.1, affine=True, track_running_stats=True)
    (relu2): ReLU(inplace)
    (conv2): Conv2d(192, 48, kernel_size=(3, 3), stride=(1, 1), padding=(1, 1), bias=False)
  )
  (denselayer15): _DenseLayer(
    (norm1): BatchNorm2d(1728, eps=1e-05, momentum=0.1, affine=True, track_running_stats=True)
    (relu1): ReLU(inplace)
    (conv1): Conv2d(1728, 192, kernel_size=(1, 1), stride=(1, 1), bias=False)
    (norm2): BatchNorm2d(192, eps=1e-05, momentum=0.1, affine=True, track_running_stats=True)
    (relu2): ReLU(inplace)
    (conv2): Conv2d(192, 48, kernel_size=(3, 3), stride=(1, 1), padding=(1, 1), bias=False)
  )
  (denselayer16): _DenseLayer(
    (norm1): BatchNorm2d(1776, eps=1e-05, momentum=0.1, affine=True, track_running_stats=True)
    (relu1): ReLU(inplace)
    (conv1): Conv2d(1776, 192, kernel_size=(1, 1), stride=(1, 1), bias=False)
    (norm2): BatchNorm2d(192, eps=1e-05, momentum=0.1, affine=True, track_running_stats=True)
    (relu2): ReLU(inplace)
    (conv2): Conv2d(192, 48, kernel_size=(3, 3), stride=(1, 1), padding=(1, 1), bias=False)
  )
  (denselayer17): _DenseLayer(
    (norm1): BatchNorm2d(1824, eps=1e-05, momentum=0.1, affine=True, track_running_stats=True)
    (relu1): ReLU(inplace)
    (conv1): Conv2d(1824, 192, kernel_size=(1, 1), stride=(1, 1), bias=False)
    (norm2): BatchNorm2d(192, eps=1e-05, momentum=0.1, affine=True, track_running_stats=True)
    (relu2): ReLU(inplace)
    (conv2): Conv2d(192, 48, kernel_size=(3, 3), stride=(1, 1), padding=(1, 1), bias=False)
  )
  (denselayer18): _DenseLayer(
    (norm1): BatchNorm2d(1872, eps=1e-05, momentum=0.1, affine=True, track_running_stats=True)
    (relu1): ReLU(inplace)
    (conv1): Conv2d(1872, 192, kernel_size=(1, 1), stride=(1, 1), bias=False)
    (norm2): BatchNorm2d(192, eps=1e-05, momentum=0.1, affine=True, track_running_stats=True)
    (relu2): ReLU(inplace)
    (conv2): Conv2d(192, 48, kernel_size=(3, 3), stride=(1, 1), padding=(1, 1), bias=False)
  )
  (denselayer19): _DenseLayer(
    (norm1): BatchNorm2d(1920, eps=1e-05, momentum=0.1, affine=True, track_running_stats=True)
    (relu1): ReLU(inplace)
    (conv1): Conv2d(1920, 192, kernel_size=(1, 1), stride=(1, 1), bias=False)
    (norm2): BatchNorm2d(192, eps=1e-05, momentum=0.1, affine=True, track_running_stats=True)
    (relu2): ReLU(inplace)
    (conv2): Conv2d(192, 48, kernel_size=(3, 3), stride=(1, 1), padding=(1, 1), bias=False)
  )
  (denselayer20): _DenseLayer(
    (norm1): BatchNorm2d(1968, eps=1e-05, momentum=0.1, affine=True, track_running_stats=True)
    (relu1): ReLU(inplace)
    (conv1): Conv2d(1968, 192, kernel_size=(1, 1), stride=(1, 1), bias=False)
    (norm2): BatchNorm2d(192, eps=1e-05, momentum=0.1, affine=True, track_running_stats=True)
    (relu2): ReLU(inplace)
    (conv2): Conv2d(192, 48, kernel_size=(3, 3), stride=(1, 1), padding=(1, 1), bias=False)
  )
  (denselayer21): _DenseLayer(
    (norm1): BatchNorm2d(2016, eps=1e-05, momentum=0.1, affine=True, track_running_stats=True)
    (relu1): ReLU(inplace)
    (conv1): Conv2d(2016, 192, kernel_size=(1, 1), stride=(1, 1), bias=False)
    (norm2): BatchNorm2d(192, eps=1e-05, momentum=0.1, affine=True, track_running_stats=True)
    (relu2): ReLU(inplace)
    (conv2): Conv2d(192, 48, kernel_size=(3, 3), stride=(1, 1), padding=(1, 1), bias=False)
  )
  (denselayer22): _DenseLayer(
    (norm1): BatchNorm2d(2064, eps=1e-05, momentum=0.1, affine=True, track_running_stats=True)
    (relu1): ReLU(inplace)
    (conv1): Conv2d(2064, 192, kernel_size=(1, 1), stride=(1, 1), bias=False)
    (norm2): BatchNorm2d(192, eps=1e-05, momentum=0.1, affine=True, track_running_stats=True)
    (relu2): ReLU(inplace)
    (conv2): Conv2d(192, 48, kernel_size=(3, 3), stride=(1, 1), padding=(1, 1), bias=False)
  )
  (denselayer23): _DenseLayer(
    (norm1): BatchNorm2d(2112, eps=1e-05, momentum=0.1, affine=True, track_running_stats=True)
    (relu1): ReLU(inplace)
    (conv1): Conv2d(2112, 192, kernel_size=(1, 1), stride=(1, 1), bias=False)
    (norm2): BatchNorm2d(192, eps=1e-05, momentum=0.1, affine=True, track_running_stats=True)
    (relu2): ReLU(inplace)
    (conv2): Conv2d(192, 48, kernel_size=(3, 3), stride=(1, 1), padding=(1, 1), bias=False)
  )
  (denselayer24): _DenseLayer(
    (norm1): BatchNorm2d(2160, eps=1e-05, momentum=0.1, affine=True, track_running_stats=True)
    (relu1): ReLU(inplace)
    (conv1): Conv2d(2160, 192, kernel_size=(1, 1), stride=(1, 1), bias=False)
    (norm2): BatchNorm2d(192, eps=1e-05, momentum=0.1, affine=True, track_running_stats=True)
    (relu2): ReLU(inplace)
    (conv2): Conv2d(192, 48, kernel_size=(3, 3), stride=(1, 1), padding=(1, 1), bias=False)
  )
)
_DenseLayer(
  (norm1): BatchNorm2d(1056, eps=1e-05, momentum=0.1, affine=True, track_running_stats=True)
  (relu1): ReLU(inplace)
  (conv1): Conv2d(1056, 192, kernel_size=(1, 1), stride=(1, 1), bias=False)
  (norm2): BatchNorm2d(192, eps=1e-05, momentum=0.1, affine=True, track_running_stats=True)
  (relu2): ReLU(inplace)
  (conv2): Conv2d(192, 48, kernel_size=(3, 3), stride=(1, 1), padding=(1, 1), bias=False)
)
BatchNorm2d(1056, eps=1e-05, momentum=0.1, affine=True, track_running_stats=True)
ReLU(inplace)
Conv2d(1056, 192, kernel_size=(1, 1), stride=(1, 1), bias=False)
BatchNorm2d(192, eps=1e-05, momentum=0.1, affine=True, track_running_stats=True)
ReLU(inplace)
Conv2d(192, 48, kernel_size=(3, 3), stride=(1, 1), padding=(1, 1), bias=False)
_DenseLayer(
  (norm1): BatchNorm2d(1104, eps=1e-05, momentum=0.1, affine=True, track_running_stats=True)
  (relu1): ReLU(inplace)
  (conv1): Conv2d(1104, 192, kernel_size=(1, 1), stride=(1, 1), bias=False)
  (norm2): BatchNorm2d(192, eps=1e-05, momentum=0.1, affine=True, track_running_stats=True)
  (relu2): ReLU(inplace)
  (conv2): Conv2d(192, 48, kernel_size=(3, 3), stride=(1, 1), padding=(1, 1), bias=False)
)
BatchNorm2d(1104, eps=1e-05, momentum=0.1, affine=True, track_running_stats=True)
ReLU(inplace)
Conv2d(1104, 192, kernel_size=(1, 1), stride=(1, 1), bias=False)
BatchNorm2d(192, eps=1e-05, momentum=0.1, affine=True, track_running_stats=True)
ReLU(inplace)
Conv2d(192, 48, kernel_size=(3, 3), stride=(1, 1), padding=(1, 1), bias=False)
_DenseLayer(
  (norm1): BatchNorm2d(1152, eps=1e-05, momentum=0.1, affine=True, track_running_stats=True)
  (relu1): ReLU(inplace)
  (conv1): Conv2d(1152, 192, kernel_size=(1, 1), stride=(1, 1), bias=False)
  (norm2): BatchNorm2d(192, eps=1e-05, momentum=0.1, affine=True, track_running_stats=True)
  (relu2): ReLU(inplace)
  (conv2): Conv2d(192, 48, kernel_size=(3, 3), stride=(1, 1), padding=(1, 1), bias=False)
)
BatchNorm2d(1152, eps=1e-05, momentum=0.1, affine=True, track_running_stats=True)
ReLU(inplace)
Conv2d(1152, 192, kernel_size=(1, 1), stride=(1, 1), bias=False)
BatchNorm2d(192, eps=1e-05, momentum=0.1, affine=True, track_running_stats=True)
ReLU(inplace)
Conv2d(192, 48, kernel_size=(3, 3), stride=(1, 1), padding=(1, 1), bias=False)
_DenseLayer(
  (norm1): BatchNorm2d(1200, eps=1e-05, momentum=0.1, affine=True, track_running_stats=True)
  (relu1): ReLU(inplace)
  (conv1): Conv2d(1200, 192, kernel_size=(1, 1), stride=(1, 1), bias=False)
  (norm2): BatchNorm2d(192, eps=1e-05, momentum=0.1, affine=True, track_running_stats=True)
  (relu2): ReLU(inplace)
  (conv2): Conv2d(192, 48, kernel_size=(3, 3), stride=(1, 1), padding=(1, 1), bias=False)
)
BatchNorm2d(1200, eps=1e-05, momentum=0.1, affine=True, track_running_stats=True)
ReLU(inplace)
Conv2d(1200, 192, kernel_size=(1, 1), stride=(1, 1), bias=False)
BatchNorm2d(192, eps=1e-05, momentum=0.1, affine=True, track_running_stats=True)
ReLU(inplace)
Conv2d(192, 48, kernel_size=(3, 3), stride=(1, 1), padding=(1, 1), bias=False)
_DenseLayer(
  (norm1): BatchNorm2d(1248, eps=1e-05, momentum=0.1, affine=True, track_running_stats=True)
  (relu1): ReLU(inplace)
  (conv1): Conv2d(1248, 192, kernel_size=(1, 1), stride=(1, 1), bias=False)
  (norm2): BatchNorm2d(192, eps=1e-05, momentum=0.1, affine=True, track_running_stats=True)
  (relu2): ReLU(inplace)
  (conv2): Conv2d(192, 48, kernel_size=(3, 3), stride=(1, 1), padding=(1, 1), bias=False)
)
BatchNorm2d(1248, eps=1e-05, momentum=0.1, affine=True, track_running_stats=True)
ReLU(inplace)
Conv2d(1248, 192, kernel_size=(1, 1), stride=(1, 1), bias=False)
BatchNorm2d(192, eps=1e-05, momentum=0.1, affine=True, track_running_stats=True)
ReLU(inplace)
Conv2d(192, 48, kernel_size=(3, 3), stride=(1, 1), padding=(1, 1), bias=False)
_DenseLayer(
  (norm1): BatchNorm2d(1296, eps=1e-05, momentum=0.1, affine=True, track_running_stats=True)
  (relu1): ReLU(inplace)
  (conv1): Conv2d(1296, 192, kernel_size=(1, 1), stride=(1, 1), bias=False)
  (norm2): BatchNorm2d(192, eps=1e-05, momentum=0.1, affine=True, track_running_stats=True)
  (relu2): ReLU(inplace)
  (conv2): Conv2d(192, 48, kernel_size=(3, 3), stride=(1, 1), padding=(1, 1), bias=False)
)
BatchNorm2d(1296, eps=1e-05, momentum=0.1, affine=True, track_running_stats=True)
ReLU(inplace)
Conv2d(1296, 192, kernel_size=(1, 1), stride=(1, 1), bias=False)
BatchNorm2d(192, eps=1e-05, momentum=0.1, affine=True, track_running_stats=True)
ReLU(inplace)
Conv2d(192, 48, kernel_size=(3, 3), stride=(1, 1), padding=(1, 1), bias=False)
_DenseLayer(
  (norm1): BatchNorm2d(1344, eps=1e-05, momentum=0.1, affine=True, track_running_stats=True)
  (relu1): ReLU(inplace)
  (conv1): Conv2d(1344, 192, kernel_size=(1, 1), stride=(1, 1), bias=False)
  (norm2): BatchNorm2d(192, eps=1e-05, momentum=0.1, affine=True, track_running_stats=True)
  (relu2): ReLU(inplace)
  (conv2): Conv2d(192, 48, kernel_size=(3, 3), stride=(1, 1), padding=(1, 1), bias=False)
)
BatchNorm2d(1344, eps=1e-05, momentum=0.1, affine=True, track_running_stats=True)
ReLU(inplace)
Conv2d(1344, 192, kernel_size=(1, 1), stride=(1, 1), bias=False)
BatchNorm2d(192, eps=1e-05, momentum=0.1, affine=True, track_running_stats=True)
ReLU(inplace)
Conv2d(192, 48, kernel_size=(3, 3), stride=(1, 1), padding=(1, 1), bias=False)
_DenseLayer(
  (norm1): BatchNorm2d(1392, eps=1e-05, momentum=0.1, affine=True, track_running_stats=True)
  (relu1): ReLU(inplace)
  (conv1): Conv2d(1392, 192, kernel_size=(1, 1), stride=(1, 1), bias=False)
  (norm2): BatchNorm2d(192, eps=1e-05, momentum=0.1, affine=True, track_running_stats=True)
  (relu2): ReLU(inplace)
  (conv2): Conv2d(192, 48, kernel_size=(3, 3), stride=(1, 1), padding=(1, 1), bias=False)
)
BatchNorm2d(1392, eps=1e-05, momentum=0.1, affine=True, track_running_stats=True)
ReLU(inplace)
Conv2d(1392, 192, kernel_size=(1, 1), stride=(1, 1), bias=False)
BatchNorm2d(192, eps=1e-05, momentum=0.1, affine=True, track_running_stats=True)
ReLU(inplace)
Conv2d(192, 48, kernel_size=(3, 3), stride=(1, 1), padding=(1, 1), bias=False)
_DenseLayer(
  (norm1): BatchNorm2d(1440, eps=1e-05, momentum=0.1, affine=True, track_running_stats=True)
  (relu1): ReLU(inplace)
  (conv1): Conv2d(1440, 192, kernel_size=(1, 1), stride=(1, 1), bias=False)
  (norm2): BatchNorm2d(192, eps=1e-05, momentum=0.1, affine=True, track_running_stats=True)
  (relu2): ReLU(inplace)
  (conv2): Conv2d(192, 48, kernel_size=(3, 3), stride=(1, 1), padding=(1, 1), bias=False)
)
BatchNorm2d(1440, eps=1e-05, momentum=0.1, affine=True, track_running_stats=True)
ReLU(inplace)
Conv2d(1440, 192, kernel_size=(1, 1), stride=(1, 1), bias=False)
BatchNorm2d(192, eps=1e-05, momentum=0.1, affine=True, track_running_stats=True)
ReLU(inplace)
Conv2d(192, 48, kernel_size=(3, 3), stride=(1, 1), padding=(1, 1), bias=False)
_DenseLayer(
  (norm1): BatchNorm2d(1488, eps=1e-05, momentum=0.1, affine=True, track_running_stats=True)
  (relu1): ReLU(inplace)
  (conv1): Conv2d(1488, 192, kernel_size=(1, 1), stride=(1, 1), bias=False)
  (norm2): BatchNorm2d(192, eps=1e-05, momentum=0.1, affine=True, track_running_stats=True)
  (relu2): ReLU(inplace)
  (conv2): Conv2d(192, 48, kernel_size=(3, 3), stride=(1, 1), padding=(1, 1), bias=False)
)
BatchNorm2d(1488, eps=1e-05, momentum=0.1, affine=True, track_running_stats=True)
ReLU(inplace)
Conv2d(1488, 192, kernel_size=(1, 1), stride=(1, 1), bias=False)
BatchNorm2d(192, eps=1e-05, momentum=0.1, affine=True, track_running_stats=True)
ReLU(inplace)
Conv2d(192, 48, kernel_size=(3, 3), stride=(1, 1), padding=(1, 1), bias=False)
_DenseLayer(
  (norm1): BatchNorm2d(1536, eps=1e-05, momentum=0.1, affine=True, track_running_stats=True)
  (relu1): ReLU(inplace)
  (conv1): Conv2d(1536, 192, kernel_size=(1, 1), stride=(1, 1), bias=False)
  (norm2): BatchNorm2d(192, eps=1e-05, momentum=0.1, affine=True, track_running_stats=True)
  (relu2): ReLU(inplace)
  (conv2): Conv2d(192, 48, kernel_size=(3, 3), stride=(1, 1), padding=(1, 1), bias=False)
)
BatchNorm2d(1536, eps=1e-05, momentum=0.1, affine=True, track_running_stats=True)
ReLU(inplace)
Conv2d(1536, 192, kernel_size=(1, 1), stride=(1, 1), bias=False)
BatchNorm2d(192, eps=1e-05, momentum=0.1, affine=True, track_running_stats=True)
ReLU(inplace)
Conv2d(192, 48, kernel_size=(3, 3), stride=(1, 1), padding=(1, 1), bias=False)
_DenseLayer(
  (norm1): BatchNorm2d(1584, eps=1e-05, momentum=0.1, affine=True, track_running_stats=True)
  (relu1): ReLU(inplace)
  (conv1): Conv2d(1584, 192, kernel_size=(1, 1), stride=(1, 1), bias=False)
  (norm2): BatchNorm2d(192, eps=1e-05, momentum=0.1, affine=True, track_running_stats=True)
  (relu2): ReLU(inplace)
  (conv2): Conv2d(192, 48, kernel_size=(3, 3), stride=(1, 1), padding=(1, 1), bias=False)
)
BatchNorm2d(1584, eps=1e-05, momentum=0.1, affine=True, track_running_stats=True)
ReLU(inplace)
Conv2d(1584, 192, kernel_size=(1, 1), stride=(1, 1), bias=False)
BatchNorm2d(192, eps=1e-05, momentum=0.1, affine=True, track_running_stats=True)
ReLU(inplace)
Conv2d(192, 48, kernel_size=(3, 3), stride=(1, 1), padding=(1, 1), bias=False)
_DenseLayer(
  (norm1): BatchNorm2d(1632, eps=1e-05, momentum=0.1, affine=True, track_running_stats=True)
  (relu1): ReLU(inplace)
  (conv1): Conv2d(1632, 192, kernel_size=(1, 1), stride=(1, 1), bias=False)
  (norm2): BatchNorm2d(192, eps=1e-05, momentum=0.1, affine=True, track_running_stats=True)
  (relu2): ReLU(inplace)
  (conv2): Conv2d(192, 48, kernel_size=(3, 3), stride=(1, 1), padding=(1, 1), bias=False)
)
BatchNorm2d(1632, eps=1e-05, momentum=0.1, affine=True, track_running_stats=True)
ReLU(inplace)
Conv2d(1632, 192, kernel_size=(1, 1), stride=(1, 1), bias=False)
BatchNorm2d(192, eps=1e-05, momentum=0.1, affine=True, track_running_stats=True)
ReLU(inplace)
Conv2d(192, 48, kernel_size=(3, 3), stride=(1, 1), padding=(1, 1), bias=False)
_DenseLayer(
  (norm1): BatchNorm2d(1680, eps=1e-05, momentum=0.1, affine=True, track_running_stats=True)
  (relu1): ReLU(inplace)
  (conv1): Conv2d(1680, 192, kernel_size=(1, 1), stride=(1, 1), bias=False)
  (norm2): BatchNorm2d(192, eps=1e-05, momentum=0.1, affine=True, track_running_stats=True)
  (relu2): ReLU(inplace)
  (conv2): Conv2d(192, 48, kernel_size=(3, 3), stride=(1, 1), padding=(1, 1), bias=False)
)
BatchNorm2d(1680, eps=1e-05, momentum=0.1, affine=True, track_running_stats=True)
ReLU(inplace)
Conv2d(1680, 192, kernel_size=(1, 1), stride=(1, 1), bias=False)
BatchNorm2d(192, eps=1e-05, momentum=0.1, affine=True, track_running_stats=True)
ReLU(inplace)
Conv2d(192, 48, kernel_size=(3, 3), stride=(1, 1), padding=(1, 1), bias=False)
_DenseLayer(
  (norm1): BatchNorm2d(1728, eps=1e-05, momentum=0.1, affine=True, track_running_stats=True)
  (relu1): ReLU(inplace)
  (conv1): Conv2d(1728, 192, kernel_size=(1, 1), stride=(1, 1), bias=False)
  (norm2): BatchNorm2d(192, eps=1e-05, momentum=0.1, affine=True, track_running_stats=True)
  (relu2): ReLU(inplace)
  (conv2): Conv2d(192, 48, kernel_size=(3, 3), stride=(1, 1), padding=(1, 1), bias=False)
)
BatchNorm2d(1728, eps=1e-05, momentum=0.1, affine=True, track_running_stats=True)
ReLU(inplace)
Conv2d(1728, 192, kernel_size=(1, 1), stride=(1, 1), bias=False)
BatchNorm2d(192, eps=1e-05, momentum=0.1, affine=True, track_running_stats=True)
ReLU(inplace)
Conv2d(192, 48, kernel_size=(3, 3), stride=(1, 1), padding=(1, 1), bias=False)
_DenseLayer(
  (norm1): BatchNorm2d(1776, eps=1e-05, momentum=0.1, affine=True, track_running_stats=True)
  (relu1): ReLU(inplace)
  (conv1): Conv2d(1776, 192, kernel_size=(1, 1), stride=(1, 1), bias=False)
  (norm2): BatchNorm2d(192, eps=1e-05, momentum=0.1, affine=True, track_running_stats=True)
  (relu2): ReLU(inplace)
  (conv2): Conv2d(192, 48, kernel_size=(3, 3), stride=(1, 1), padding=(1, 1), bias=False)
)
BatchNorm2d(1776, eps=1e-05, momentum=0.1, affine=True, track_running_stats=True)
ReLU(inplace)
Conv2d(1776, 192, kernel_size=(1, 1), stride=(1, 1), bias=False)
BatchNorm2d(192, eps=1e-05, momentum=0.1, affine=True, track_running_stats=True)
ReLU(inplace)
Conv2d(192, 48, kernel_size=(3, 3), stride=(1, 1), padding=(1, 1), bias=False)
_DenseLayer(
  (norm1): BatchNorm2d(1824, eps=1e-05, momentum=0.1, affine=True, track_running_stats=True)
  (relu1): ReLU(inplace)
  (conv1): Conv2d(1824, 192, kernel_size=(1, 1), stride=(1, 1), bias=False)
  (norm2): BatchNorm2d(192, eps=1e-05, momentum=0.1, affine=True, track_running_stats=True)
  (relu2): ReLU(inplace)
  (conv2): Conv2d(192, 48, kernel_size=(3, 3), stride=(1, 1), padding=(1, 1), bias=False)
)
BatchNorm2d(1824, eps=1e-05, momentum=0.1, affine=True, track_running_stats=True)
ReLU(inplace)
Conv2d(1824, 192, kernel_size=(1, 1), stride=(1, 1), bias=False)
BatchNorm2d(192, eps=1e-05, momentum=0.1, affine=True, track_running_stats=True)
ReLU(inplace)
Conv2d(192, 48, kernel_size=(3, 3), stride=(1, 1), padding=(1, 1), bias=False)
_DenseLayer(
  (norm1): BatchNorm2d(1872, eps=1e-05, momentum=0.1, affine=True, track_running_stats=True)
  (relu1): ReLU(inplace)
  (conv1): Conv2d(1872, 192, kernel_size=(1, 1), stride=(1, 1), bias=False)
  (norm2): BatchNorm2d(192, eps=1e-05, momentum=0.1, affine=True, track_running_stats=True)
  (relu2): ReLU(inplace)
  (conv2): Conv2d(192, 48, kernel_size=(3, 3), stride=(1, 1), padding=(1, 1), bias=False)
)
BatchNorm2d(1872, eps=1e-05, momentum=0.1, affine=True, track_running_stats=True)
ReLU(inplace)
Conv2d(1872, 192, kernel_size=(1, 1), stride=(1, 1), bias=False)
BatchNorm2d(192, eps=1e-05, momentum=0.1, affine=True, track_running_stats=True)
ReLU(inplace)
Conv2d(192, 48, kernel_size=(3, 3), stride=(1, 1), padding=(1, 1), bias=False)
_DenseLayer(
  (norm1): BatchNorm2d(1920, eps=1e-05, momentum=0.1, affine=True, track_running_stats=True)
  (relu1): ReLU(inplace)
  (conv1): Conv2d(1920, 192, kernel_size=(1, 1), stride=(1, 1), bias=False)
  (norm2): BatchNorm2d(192, eps=1e-05, momentum=0.1, affine=True, track_running_stats=True)
  (relu2): ReLU(inplace)
  (conv2): Conv2d(192, 48, kernel_size=(3, 3), stride=(1, 1), padding=(1, 1), bias=False)
)
BatchNorm2d(1920, eps=1e-05, momentum=0.1, affine=True, track_running_stats=True)
ReLU(inplace)
Conv2d(1920, 192, kernel_size=(1, 1), stride=(1, 1), bias=False)
BatchNorm2d(192, eps=1e-05, momentum=0.1, affine=True, track_running_stats=True)
ReLU(inplace)
Conv2d(192, 48, kernel_size=(3, 3), stride=(1, 1), padding=(1, 1), bias=False)
_DenseLayer(
  (norm1): BatchNorm2d(1968, eps=1e-05, momentum=0.1, affine=True, track_running_stats=True)
  (relu1): ReLU(inplace)
  (conv1): Conv2d(1968, 192, kernel_size=(1, 1), stride=(1, 1), bias=False)
  (norm2): BatchNorm2d(192, eps=1e-05, momentum=0.1, affine=True, track_running_stats=True)
  (relu2): ReLU(inplace)
  (conv2): Conv2d(192, 48, kernel_size=(3, 3), stride=(1, 1), padding=(1, 1), bias=False)
)
BatchNorm2d(1968, eps=1e-05, momentum=0.1, affine=True, track_running_stats=True)
ReLU(inplace)
Conv2d(1968, 192, kernel_size=(1, 1), stride=(1, 1), bias=False)
BatchNorm2d(192, eps=1e-05, momentum=0.1, affine=True, track_running_stats=True)
ReLU(inplace)
Conv2d(192, 48, kernel_size=(3, 3), stride=(1, 1), padding=(1, 1), bias=False)
_DenseLayer(
  (norm1): BatchNorm2d(2016, eps=1e-05, momentum=0.1, affine=True, track_running_stats=True)
  (relu1): ReLU(inplace)
  (conv1): Conv2d(2016, 192, kernel_size=(1, 1), stride=(1, 1), bias=False)
  (norm2): BatchNorm2d(192, eps=1e-05, momentum=0.1, affine=True, track_running_stats=True)
  (relu2): ReLU(inplace)
  (conv2): Conv2d(192, 48, kernel_size=(3, 3), stride=(1, 1), padding=(1, 1), bias=False)
)
BatchNorm2d(2016, eps=1e-05, momentum=0.1, affine=True, track_running_stats=True)
ReLU(inplace)
Conv2d(2016, 192, kernel_size=(1, 1), stride=(1, 1), bias=False)
BatchNorm2d(192, eps=1e-05, momentum=0.1, affine=True, track_running_stats=True)
ReLU(inplace)
Conv2d(192, 48, kernel_size=(3, 3), stride=(1, 1), padding=(1, 1), bias=False)
_DenseLayer(
  (norm1): BatchNorm2d(2064, eps=1e-05, momentum=0.1, affine=True, track_running_stats=True)
  (relu1): ReLU(inplace)
  (conv1): Conv2d(2064, 192, kernel_size=(1, 1), stride=(1, 1), bias=False)
  (norm2): BatchNorm2d(192, eps=1e-05, momentum=0.1, affine=True, track_running_stats=True)
  (relu2): ReLU(inplace)
  (conv2): Conv2d(192, 48, kernel_size=(3, 3), stride=(1, 1), padding=(1, 1), bias=False)
)
BatchNorm2d(2064, eps=1e-05, momentum=0.1, affine=True, track_running_stats=True)
ReLU(inplace)
Conv2d(2064, 192, kernel_size=(1, 1), stride=(1, 1), bias=False)
BatchNorm2d(192, eps=1e-05, momentum=0.1, affine=True, track_running_stats=True)
ReLU(inplace)
Conv2d(192, 48, kernel_size=(3, 3), stride=(1, 1), padding=(1, 1), bias=False)
_DenseLayer(
  (norm1): BatchNorm2d(2112, eps=1e-05, momentum=0.1, affine=True, track_running_stats=True)
  (relu1): ReLU(inplace)
  (conv1): Conv2d(2112, 192, kernel_size=(1, 1), stride=(1, 1), bias=False)
  (norm2): BatchNorm2d(192, eps=1e-05, momentum=0.1, affine=True, track_running_stats=True)
  (relu2): ReLU(inplace)
  (conv2): Conv2d(192, 48, kernel_size=(3, 3), stride=(1, 1), padding=(1, 1), bias=False)
)
BatchNorm2d(2112, eps=1e-05, momentum=0.1, affine=True, track_running_stats=True)
ReLU(inplace)
Conv2d(2112, 192, kernel_size=(1, 1), stride=(1, 1), bias=False)
BatchNorm2d(192, eps=1e-05, momentum=0.1, affine=True, track_running_stats=True)
ReLU(inplace)
Conv2d(192, 48, kernel_size=(3, 3), stride=(1, 1), padding=(1, 1), bias=False)
_DenseLayer(
  (norm1): BatchNorm2d(2160, eps=1e-05, momentum=0.1, affine=True, track_running_stats=True)
  (relu1): ReLU(inplace)
  (conv1): Conv2d(2160, 192, kernel_size=(1, 1), stride=(1, 1), bias=False)
  (norm2): BatchNorm2d(192, eps=1e-05, momentum=0.1, affine=True, track_running_stats=True)
  (relu2): ReLU(inplace)
  (conv2): Conv2d(192, 48, kernel_size=(3, 3), stride=(1, 1), padding=(1, 1), bias=False)
)
BatchNorm2d(2160, eps=1e-05, momentum=0.1, affine=True, track_running_stats=True)
ReLU(inplace)
Conv2d(2160, 192, kernel_size=(1, 1), stride=(1, 1), bias=False)
BatchNorm2d(192, eps=1e-05, momentum=0.1, affine=True, track_running_stats=True)
ReLU(inplace)
Conv2d(192, 48, kernel_size=(3, 3), stride=(1, 1), padding=(1, 1), bias=False)
…
